optimal_agent/weights_critic1.pth (torch, 71279 bytes, 7 tensors)

hidden_layers.0.linear.weight f4 [64, 4]
00000000: 1b47 1b3d f6c2 973d 69ce 8f3a 9edf 873c
00000010: f45e e0bf c735 3ac0 ed09 2fbf 5a95 d03c
00000020: 3757 783d 3f40 9f3d 6127 dabb 12ea 073c
00000030: be63 99be 599c 8240 08c6 ddbe 4b1a 1f3c
00000040: 8e2c c43b f17d a4bc 9571 d13c fce5 203d
00000050: a29f e03f a607 c040 5c45 ac3f bac2 4f3e
00000060: 5f53 bbbf 8fbd 37c0 a9af 2bbf 095a 1fbe
00000070: 1a97 cfbf 6b70 a140 aa0f 6d3f ef2c f83d
00000080: 7462 9b3b a521 18be b1d7 56bc 61fc 32bc
00000090: 309c 533d 1324 dbbc dfd0 d7bc 5056 af3c
000000a0: 15e0 80c0 d02d 123f c661 013e 3409 cbbd
000000b0: b6f6 50bc 8c99 83bd d5bc 4bbb adf3 cd3c
000000c0: d201 08c0 6911 ecbf 5d78 62be 37e4 a13d
000000d0: 4b10 11c0 797d 2540 1322 223f 87bc f63d
000000e0: 6d84 543c 4429 6bbd 6e0c fd3b 8a4b 03bd
000000f0: e262 da3f dca4 90bf bb5a 3abf 785b 06be
00000100: 88e0 8840 34e0 8240 b671 bd3f 2ad8 5b3e
00000110: 83a7 a63d 0be4 453e 72f1 ddbc 37d7 65bb
00000120: 0a64 733c 47a2 3ebd 1dc9 0d3d be24 e83c
00000130: 502d 813d eb8a 153d 034c 353c ee5c 1a3d
00000140: 58d3 803e 19d1 a5c0 3c9b 7abf a498 70be
00000150: bcbb 78bc 1344 bcbd f40e 28bc 84c2 5bbb
00000160: 8939 a9bf 50f1 42bf 8ac3 13be 0768 d43c
00000170: e496 f23c 927f 083d 8dca 85bc 6215 1bbc
00000180: 4b34 7a3d 5056 483e 5e34 41bd f9c6 0dbd
00000190: ad4a 0b3d 9101 1e3e 256e 61b7 7d47 833b
000001a0: 8321 6e39 1904 ebbc 8b43 b03c 710e c2bb
000001b0: e5c2 9040 e683 35c0 b7d7 a4bf 78d8 1bbe
000001c0: a940 7d40 10cc f0bf 3501 90bf 377d 37be
000001d0: 0608 35bf ea00 8d40 7ca7 363f c8fc 51bd
000001e0: a938 02bf d85a 6940 8d33 3bbf e16f 73be
000001f0: 70c6 52bf 79b6 87c0 5e5b 53bf d67f 1fbe
00000200: 4d00 2540 dd68 403f 2f48 843f 759b 083e
00000210: fa4b 12c0 61ad 5e40 b262 8a3e f9f1 4e3e
00000220: 5072 92bf a482 d4bf 70bb 1cbe 390b 4dbe
00000230: b8d2 e83c 99a7 1e3d 3fb7 1fbc a153 aa3c
00000240: 67e2 14bd 5a82 16bd 2231 c3bb 1211 753c
00000250: aeeb 333d 2c7e f8bc 40c3 c7bc 2306 3c3d
00000260: 4b7e b43c ff65 a2bd 19ce ff3c 0c60 403d
00000270: 84f7 8d3c 3fd3 3abd b9c2 a93c 444d 963d
00000280: 4cd5 e3bb 6557 e6bd 0934 963c 0ef5 85bc
00000290: 3f99 33bf 7b3b afbf e2aa e73d 6e9c a33e
000002a0: bbe8 353c 42f3 04bc 5630 92bc 6883 2f3d
000002b0: 7a32 e6bc 86df 5bbd 24d0 42bc 8672 be3c
000002c0: c87e 153f ac9e be3e 8b87 98bf 8c58 773b
000002d0: d4a3 943c d270 d13d 6e63 0fbd 9874 03bc
000002e0: aabd 203d 554c 003d 50f2 eebc 4e04 4bba
000002f0: 5825 ab3f 0b19 77c0 0efa bb3f 7da7 753e
00000300: 8b50 013c 065f b9bc b586 b83c 194c f33c
00000310: fd7d 8bc0 2d0a 3b3f ed70 123f fc20 1bbe
00000320: 13e3 ec3b b722 523c b35f e03b 29e3 003d
00000330: 431f ea3b eb5c 14bd 55fd aa3b a262 9d3b
00000340: 4e9c c13f 1980 96c0 2a6b 87bf bd68 6cbe
00000350: dc5c dcbc 0844 5d3d e5fa debc 9669 41bc
00000360: a9af eb3e 5e6b 95bf 5918 8e3c d3fe ecbe
00000370: 2a33 24bc cddc b4bd 9b90 ccba 6c05 05bd
00000380: c0db 7bc0 66d9 06bf 5c67 25be 98d5 733d
00000390: 9166 3abd e6c7 96bd 9648 2f3c 4e60 e539
000003a0: 53f1 32bd 41d3 20bd 584d 9dbc e3bb 3d3a
000003b0: 5412 84be 509c 8340 eb8b 213f f3a0 673e
000003c0: b5eb b33d 431a a73d 18af 18bd 8190 99bb
000003d0: badc ecbc 8666 d0bc e115 eabb 7e00 9bbc
000003e0: 086c b83c 9356 393d 65da c0bc 8857 f8bb
000003f0: ec77 403c 85a0 43bc 5b76 dabc b675 d9bb
0.03790961 0.07410233 0.0010971549 0.016586121 -1.7528977 -2.9095323 -0.6837452 0.025461841
0.06063005 0.07775926 -0.0066575264 0.008295553 -0.2995891 4.0815854 -0.43315148 0.009710859
0.0059867566 -0.020079585 0.025566855 0.03928183 1.7548716 6.0009336 1.3458667 0.20289126
-1.4634818 -2.8709447 -0.6706491 -0.1556169 -1.6217988 5.044973 0.92602026 0.121179454
0.004741961 -0.14856584 -0.013112948 -0.01092443 0.051662624 -0.0267506 -0.026344715 0.021403462
-4.027354 0.57101154 0.12634954 -0.09913865 -0.012754133 -0.06425771 -0.0031087894 0.025140608
-2.125111 -1.8442813 -0.22116227 0.07904857 -2.2666194 2.5857832 0.63333243 0.120476775
0.012971026 -0.0574124 0.007722429 -0.03205446 1.7061427 -1.1300311 -0.72794694 -0.1312083
4.2774086 4.0898685 1.4800327 0.21469179 0.08137419 0.19325273 -0.02709267 -0.0035070905
0.014855394 -0.04654148 0.034615625 0.028337833 0.06307471 0.036509436 0.011065486 0.03768628
0.25161242 -5.1817746 -0.9789312 -0.23495728 -0.015181478 -0.091926716 -0.010257471 -0.0033532688
-1.3220683 -0.76149464 -0.14430061 0.02592851 0.029612966 0.033324786 -0.016331935 -0.009465547
0.061085027 0.19564176 -0.047169082 -0.034613583 0.034006763 0.15430285 -1.343669e-05 0.004006325
0.00022709933 -0.028688477 0.021516582 -0.0059221317 4.523791 -2.8361754 -1.2878331 -0.15219295
3.9570715 -1.8812275 -1.1250368 -0.1791886 -0.7071537 4.4063616 0.7134931 -0.05126646
-0.50867707 3.6461697 -0.73125535 -0.23773147 -0.8233404 -4.2410245 -0.8256129 -0.1557611
2.5781434 0.7516001 1.0334529 0.13340552 -2.2858872 3.4793322 0.27028424 0.20209493
-1.1441135 -1.6602368 -0.15305877 -0.20023812 0.028420791 0.038734052 -0.009748279 0.02079183
-0.036348727 -0.036745407 -0.005956785 0.014957683 0.043925934 -0.030333601 -0.024385095 0.04590429
0.022032877 -0.079296105 0.031226205 0.046966597 0.017329939 -0.045611616 0.020722734 0.07338956
-0.006952917 -0.11247138 0.01833536 -0.016352203 -0.7015571 -1.3690027 0.1131189 0.31955284
0.011102851 -0.008114638 -0.017845314 0.04284993 -0.028100241 -0.053679965 -0.011890445 0.023247968
0.5839658 0.37230432 -1.1916364 0.0037741987 0.018144526 0.10226597 -0.035006933 -0.008023404
0.039243378 0.031322796 -0.029168278 -0.0007744477 1.3370771 -3.8609035 1.4685686 0.23989673
0.007892738 -0.022628319 0.02252517 0.029699372 -4.3591294 0.730624 0.5720356 -0.15149301
0.007229218 0.0128256595 0.0068473457 0.031466637 0.00714484 -0.036221426 0.005218188 0.0048030177
1.5125825 -4.703137 -1.0579579 -0.2308683 -0.026899748 0.054019958 -0.027219245 -0.011804959
0.46032456 -1.1673391 0.017345594 -0.46288165 -0.010021964 -0.08831177 -0.0015607061 -0.032475874
-3.9352875 -0.52675474 -0.1615271 0.05952987 -0.04550797 -0.07362346 0.010698458 0.00043750036
-0.043687176 -0.039263967 -0.01920192 0.0007237775 -0.25795233 4.112831 0.6310412 0.22619991
0.08785192 0.08159306 -0.037276357 -0.0046864157 -0.028913844 -0.025439512 -0.0071437215 -0.018921133
0.02251245 0.04524858 -0.023541639 -0.007578794 0.011747342 -0.011940126 -0.026667764 -0.0066363467

hidden_layers.0.linear.bias f4 [64]
00000000: 36ee 17bd 442f 2b3f cbda 87bc 406e 95bf
00000010: ba7a 043d e8d1 80be ae2e fe3e e43d fbbd
00000020: edb3 debc 9821 16bd 53b3 83be b9cc 8abc
00000030: 9f12 15c0 ea79 603f 276e 16bc e448 3dc0
00000040: 57af 39c0 4dcb 97bd 555b 243c f375 383b
00000050: 1744 99bf f2cf b1bc 5805 4ec0 8623 39bc
00000060: de40 5abd 6635 fbbc eb36 dd3c 3831 4dc0
00000070: 5116 49c0 0c23 13bf f82f b5bf f5fa a1be
00000080: 986d 62c0 4b0c d1bf afb0 02c0 a7b4 5abc
00000090: a87e 0cbd 2007 55bd c2bd ce3c e5c3 81ba
000000a0: 3c7d 983b e735 b9bf 252b 26bc daeb d0bc
000000b0: ceeb b0bf 57d3 c7bc 5486 81bd f7fb 9c3b
000000c0: 651c b1bc 6565 23c0 da28 03bc 56ef f63c
000000d0: 0917 03c0 c405 e0bc 9edf 59bf ebad 86bc
000000e0: c559 c9bd 548c 703c 418e 27bd 9341 0dbf
000000f0: 62c4 f6bc 8ea1 b33c 72f1 24bd 06ea 11bd
-0.03709241 0.66868997 -0.01658382 -1.1674271 0.032343604 -0.25160146 0.4964499 -0.12267664
-0.027185405 -0.03665313 -0.2572275 -0.016943322 -2.3292615 0.87686026 -0.009181536 -2.957574
-2.901327 -0.074118234 0.010031541 0.0028146475 -1.1973904 -0.021705601 -3.2190762 -0.011299973
-0.05328452 -0.03066511 0.027003726 -3.206129 -3.141987 -0.5747535 -1.4155264 -0.31636778
-3.537939 -1.6331877 -2.042034 -0.013348735 -0.034300476 -0.052008748 0.025236968 -0.00099003
0.004653601 -1.4469575 -0.010142122 -0.025503088 -1.3821962 -0.024392767 -0.06324449 0.0047907787
-0.021619985 -2.5530636 -0.008005345 0.030143421 -2.048281 -0.0273465 -0.8510684 -0.016440352
-0.09831575 0.014681894 -0.04090715 -0.55178183 -0.03012294 0.021927621 -0.040269323 -0.035623573

hidden_layers.1.linear.weight f4 [128, 64]
00000000: 1218 1cbe 3e4b 7dbf 36ba 9cbb 4727 45be
00000010: 8530 96be b417 d8bd 7526 2dbf 9825 9bbe
00000020: da76 3a3d 005f 063e e6bb d03f 7e1e 3f3d
00000030: b353 9c40 9791 34bf a6a6 b7bc 7cb8 b13f
00000040: 556c 903f e11c e63e 1205 9f3b 4dd4 9dbd
00000050: 3aa3 833e 3bbe 40be 7e11 8e40 8fc1 9f3d
00000060: a0e1 0f3f 83db fa3d 8e7b 463e 9f9f d13f
00000070: ab68 0c40 a223 cb3c 32a6 023f 3fa3 25bf
00000080: 38c7 ba3f ae7e 103f ca34 1540 a961 60bc
00000090: c794 e4ba 5678 713e 1481 c5bc 7648 f7bd
000000a0: 2d6b bf3d e56f bb3f b3bc eebc 1dc0 96bd
000000b0: db2b 173f 4ce3 173d ccfd 253d 561c 09bf
000000c0: ea8f 493e c7f5 7f3f fc1c 5abd 6281 0c3e
000000d0: dff2 b53e 5a9c adbc d5bc 903f a970 75bd
000000e0: bbaa 823f 5958 e1be 0716 60bc 1061 c43e
000000f0: eab6 f03d 80c4 103d a2cc bfbd f834 be3e
00000100: 41af 463e f85c 8bbf ffde 8dbe 625d cdbd
00000110: 6633 8dbe a1d2 4bbf 00b6 95bf 9074 01bf
00000120: 9921 05be 2c08 6d3d b465 4f3e f0a6 b43e
00000130: 6b9f c33f e5f9 34bf ed76 eabe 3aff ba3d
00000140: d16b 16bf 249e 9fbd a87a 1abe 5379 c73e
00000150: 4336 2bbc de13 4f3d e8bc 993f b480 d13e
00000160: 35d5 b93e 4c5e 693f 6c2d 27bf 53c8 b5be
00000170: 86fc eebe b44f debe fd6c 5f3d 9265 35bf
00000180: d1a7 6d3f b476 1b3f ca06 893e 5a35 35be
00000190: 892e df3d 059d cf3e c1cc dcbe 2bca a0be
000001a0: 0efa 4bbe d835 963f 9948 c1be 9c9b c3bd
000001b0: 2a0a 85be 4a32 393f 70ef 103f fc75 34bf
000001c0: 4d56 b03e 5183 ab3d 2ee6 c73e 0adf aabe
000001d0: 39bd abbe 1992 133e 5b49 763f 11e7 ab3f
000001e0: 955b d6bc f7fd 87be e8b1 59bf 4093 eabe
000001f0: 173d ac3c d113 463f e4c6 8bbe 00ff 83bd
00000200: ad82 6fbd 0d6a 12bf 98ce a9bd 9c47 813e
00000210: 5a8a 833d 0498 f73f f55d ccbe 3fff 593f
00000220: 9247 c0bd 4688 89bc 642a 3dbf 235b 743d
00000230: c8c3 19bf 97c9 9e3b 97f0 0ebd 6798 dfbe
00000240: 86d3 0340 59dd a53d 4f33 acbc 3333 67bd
00000250: bda5 debf 0557 4abd dd1c 63be 17d5 36bd
00000260: 4f0d 983d 39cf 3a3d d125 debb c592 1ac0
00000270: 1e44 abbe eac0 b03d ae93 7a3e bb32 2fbf
00000280: beae 0d40 2b16 ebbe 9b4d 733d 0a2c 60bd
00000290: 356f 423d 09fb 24bb 249e 1cbc 8088 d8bd
000002a0: 263c c6bc 6348 7ebe 843a 7d3d 16e3 ba3c
000002b0: f53c 343d e49f 6e3d 5001 72bc 0a56 d2bf
000002c0: 0a83 b2bc d9c9 2cc0 94ac 123d a6d5 ad3d
000002d0: 4205 0fc0 be9b a73d e5b7 f2be e17b 7b3c
000002e0: 2f10 593e 7320 ac3c edf4 903d 1ed8 8fbd
000002f0: 06d1 2fbd 2223 c13d 8077 a1bc 59c9 3c3c
00000300: fdf7 fd3d 3140 efbd be1c 5d3e 4b30 b3bf
00000310: ce92 793e b513 c5bd ff01 b1bd e7ee f6bd
00000320: d553 0cbf 304b f3bc a0c3 1dbf c846 3fbb
00000330: 31c3 f1be 65d7 f0be 554c 2bbf 72a7 34bf
00000340: 1a2f 4bbe 63bf 023f ba30 5bbd 2894 293f
00000350: b3b2 ab3e 00b1 2dbe 367b 86be 7a1a 963e
00000360: 35b3 953e 946d a6bb 4dab 543e 0a52 113e
00000370: eab2 6b3e 4c5f 9b3d dabd f4bf 8e38 003d
00000380: 2cde 133f 3d4d c9be b81e 9cbe 1e49 ae3e
00000390: c08e 0a3f 28b6 eebd c3d3 e73e b3fb ae3d
000003a0: 468a 20be 9b76 02be 6e61 ab3d e711 983d
000003b0: f164 1ec0 9fce e4be 54fe 4bbe b568 25c0
000003c0: bb25 2bbe 804d d6be 3bac 943e 552d b8be
000003d0: ba11 1b3f d6b9 a6bc 7e95 4dbd 1f00 aebe
000003e0: 11ce 0ebf 5fe8 273c 0b95 80be d098 25be
000003f0: d98c 02be 129f 8b3e 6ebb 983e 75b2 10be
-0.15243557 -0.98942935 -0.0047829403 -0.19253264 -0.29333892 -0.10551396 -0.67636806 -0.3030212
0.045523502 0.13122177 1.6307342 0.04665994 4.885217 -0.7053465 -0.022418331 1.3884425
1.128306 0.44943908 0.0048528994 -0.07706509 0.2571047 -0.18822567 4.4396353 0.0780059
0.5620365 0.122489 0.1938307 1.6376837 2.1938884 0.024797264 0.51034844 -0.6470222
1.4592047 0.564433 2.331347 -0.013695159 -0.0017439359 0.23581061 -0.0241094 -0.12074368
0.09346614 1.4643523 -0.029142713 -0.073608615 0.59051293 0.037082 0.040525243 -0.5355886
0.19683805 0.999844 -0.053250298 0.1372123 0.35536858 -0.021192718 1.1307627 -0.059921894
1.0208353 -0.44012716 -0.013677127 0.38355303 0.11753638 0.035343647 -0.093652025 0.37149787
0.19402792 -1.0887747 -0.27709195 -0.10027577 -0.27578276 -0.7961827 -1.1696167 -0.50568485
-0.13001098 0.05786912 0.2025364 0.35283613 1.5283026 -0.7069381 -0.45793858 0.09130712
-0.58758265 -0.07793835 -0.15085852 0.3895975 -0.010449949 0.050556056 1.2010775 0.40918505
0.36295477 0.9115951 -0.65303683 -0.35504398 -0.46677035 -0.43420184 0.0545473 -0.7085811
0.9283419 0.60728 0.26762992 -0.17696133 0.10897548 0.40549484 -0.43124965 -0.31404242
-0.19919607 1.1735182 -0.377507 -0.095511645 -0.25984317 0.7234236 0.5661535 -0.7049253
0.34440842 0.08374656 0.390428 -0.3337329 -0.33542803 0.144112 0.9620568 1.3429891
-0.026166717 -0.26560947 -0.8503709 -0.45815468 0.021025224 0.7737399 -0.2730018 -0.06445122
-0.05847423 -0.5719307 -0.08291358 0.25249946 0.06422873 1.9343266 -0.39915434 0.851551
-0.09388651 -0.016788613 -0.7389281 0.059657227 -0.60064363 0.0048458087 -0.034897413 -0.4367096
2.0597854 0.08098859 -0.02102056 -0.05644531 -1.7394329 -0.049399395 -0.22178979 -0.044636812
0.074244134 0.04560778 -0.0067794104 -2.415208 -0.33450407 0.086305454 0.24470398 -0.68436784
2.2137904 -0.4591535 0.059400182 -0.0547295 0.047469337 -0.0025174043 -0.009559188 -0.1057291
-0.024198603 -0.24832301 0.061823383 0.022813361 0.044003446 0.058257952 -0.014770821 -1.6432507
-0.021791 -2.6998198 0.035809115 0.08488016 -2.234696 0.08184002 -0.47405925 0.015349359
0.2119758 0.021011567 0.07077966 -0.07023643 -0.04292395 0.09430529 -0.019710302 0.011522614
0.12400816 -0.116821654 0.21592996 -1.3999113 0.24372408 -0.096228994 -0.08642959 -0.12057286
-0.5481542 -0.029698938 -0.61626625 -0.0029186476 -0.47219232 -0.47039333 -0.6691335 -0.70568
-0.19842187 0.5107328 -0.053513266 0.66241693 0.33534774 -0.16962051 -0.26265877 0.29317075
0.29238287 -0.0050789807 0.20768471 0.14191452 0.23017469 0.07586536 -1.9120438 0.031303935
0.5776088 -0.3931674 -0.30492187 0.3404016 0.5412407 -0.11655837 0.4527875 0.085441016
-0.15677747 -0.12740557 0.083681926 0.074252896 -2.474911 -0.4468889 -0.19921237 -2.5845158
-0.16713612 -0.41856003 0.2903765 -0.35972086 0.60573924 -0.020352285 -0.050191395 -0.33984467
-0.5578318 0.010248273 -0.2511371 -0.16171575 -0.12749042 0.272698 0.29830498 -0.14130576

hidden_layers.1.linear.bias f4 [128]
00000000: a7f4 48c0 e283 d2bf 9934 553e b305 ef3d
00000010: 5072 5dbf 2eab 1fbf 6ecb 3dbf abc3 c0bf
00000020: 0c9d 96bf 351c 3ec0 d945 98bf 2891 8fbf
00000030: 79d9 1340 38e4 6bbf 4fa5 2bc0 e220 6ac0
00000040: 4fbb abbf 922a 3bbf e69e c3bf 1e60 0ec0
00000050: f937 a4bf e6b9 d9bf 014c 06c0 6fb6 d0bf
00000060: ac3d 67bf a34c 67bf 2dec a5bf e58a 36c0
00000070: 5c89 35c0 487a 85bf 4d96 acbf 7f8f d1bf
00000080: 147d 8abe c700 1ec0 80ef 39bf 875a e1bf
00000090: 6019 c5bf f984 05c0 7e44 8ebd 5d51 cabf
000000a0: 37e5 98bf 958b d6bf ceca 3abf faa8 26c0
000000b0: 43cf 49c0 1f8c c0bf de4a 11c0 7046 133f
000000c0: 400f a4bf 6f8e 893f 80ab e4bf 77cb 7fbf
000000d0: 3edd 0ec0 5d1d 58bf e798 88bf 9cb6 393f
000000e0: 6048 abbf 3f9c 00bf daa1 5cbf 3ab7 32c0
000000f0: 7acf f4bf 8eb9 3ec0 76ac 08c0 0823 1bbf
00000100: 0004 a7bf b270 cabf 1e0f 58c0 36c6 d2bf
00000110: e434 babf d139 4cbf 3e25 ddbf b085 3abe
00000120: c8c4 6bbf b51c 55bf 053a 5ac0 36ae 7fbf
00000130: a901 bdbf 5308 1dbc 30a9 47c0 3b07 adbf
00000140: 8c4b 4ac0 3c2f 94bf f3b9 d3bf 7632 d8bf
00000150: d912 b9bf 0fe1 afbf 4193 d0bf 6324 b8bf
00000160: da57 97bf 8e41 97bf 75b3 e8bf cac0 453f
00000170: ddc2 30c0 eaba dfbf 4180 d6bf 0e90 5cbf
00000180: c168 3a3f cfc5 12bf dd12 3fc0 a84a f3bf
00000190: e3ba 91bf 4e67 aabf 528b 26c0 f02e d13d
000001a0: 6820 e0bf 1e49 bdbf 34e9 ddbf fd51 d2bf
000001b0: b0cc d3bf 292e abbf 4d36 47c0 8622 b4bf
000001c0: d75d 7d3e 7851 4abf 5416 dcbf b4b3 56c0
000001d0: 38f4 6dbf ffd3 0abf 705a dabf db9f 43bf
000001e0: 96ec cebf 7dc9 2bc0 b6a6 b63f a74e 01c0
000001f0: 655f c9bf 22c1 dbbf 328c a6bf d190 abbf
-3.1399324 -1.6446497 0.20820846 0.11671009 -0.8650255 -0.62370574 -0.74138534 -1.5059713
-1.1766677 -2.9704716 -1.1896316 -1.1216173 2.3101485 -0.9214511 -2.6819646 -3.658257
-1.3416537 -0.7311183 -1.5282867 -2.2246165 -1.2829581 -1.7009857 -2.098389 -1.6305674
-0.9032848 -0.90351313 -1.29627 -2.8522274 -2.8365088 -1.0427942 -1.3483368 -1.6371917
-0.27048552 -2.4687974 -0.72631073 -1.7605752 -1.5398369 -2.086241 -0.069466576 -1.580608
-1.1944951 -1.6761347 -0.72965705 -2.6040635 -3.1532753 -1.5042762 -2.2701945 0.57529354
-1.2817154 1.0746592 -1.7864838 -0.9991984 -2.2322536 -0.84419805 -1.0671662 0.72544265
-1.3381462 -0.5023841 -0.86184466 -2.7924333 -1.9125817 -2.9800754 -2.1355262 -0.6060033
-1.3048096 -1.5815642 -3.3759227 -1.6466739 -1.4547391 -0.7977572 -1.727699 -0.1821506
-0.9209714 -0.8324693 -3.4097912 -0.998752 -1.4766132 -0.009584504 -3.1197014 -1.3517832
-3.160861 -1.1576915 -1.6541122 -1.68904 -1.4458877 -1.3740557 -1.6294938 -1.4386104
-1.1823685 -1.1816881 -1.8179766 0.772473 -2.7618935 -1.7478917 -1.675789 -0.8615731
0.7281609 -0.5733308 -2.9855263 -1.9007158 -1.1385158 -1.3312776 -2.6022534 0.10214031
-1.750989 -1.4787939 -1.7336793 -1.6431271 -1.6546841 -1.3373462 -3.1126893 -1.4073036
0.24742828 -0.7903056 -1.7194314 -3.3547182 -0.92950773 -0.5422973 -1.7058849 -0.76415795
-1.616595 -2.6841729 1.4269626 -2.0204256 -1.5732237 -1.7168314 -1.3011534 -1.340357

hidden_layers.2.linear.weight f4 [64, 128]
00000000: f915 283f 7c03 ba3e 9518 eebe 88ec 8e3e
00000010: 2b70 903e 2c7c 26bc 9d6a 973e 35fa eb3e
00000020: e23b 67bd 0001 ab3b a94b ef3e cf46 113d
00000030: eac4 68be 5b42 ce3d 2a68 3d3f 114b c9bb
00000040: 554c 46bf e78a 123e 8f26 b63e 14f5 053f
00000050: 1a18 983e 42e1 b4bf 6c36 27be 1826 613e
00000060: 99bd a73e e49c 9c3e 82a5 cd3e e0f2 65bd
00000070: 5e1f 833d 9fe2 c63e 654a 8c3e fbd9 633e
00000080: 05ed 2bbe 4418 9d3e 7b8e 1bbe cd8f db3e
00000090: 9de6 dd3e 47cc f63e 8753 783d 779b 8e3e
000000a0: 0820 76bf ff26 053e 9ef5 a13e b8ee 093f
000000b0: c0b7 fb3d b971 9a3e 0984 103f 0053 b03e
000000c0: 1a49 5b3e cfe3 4fbe 6ae3 dc3e 3346 153e
000000d0: 138e 213f f211 2f3e 21c3 5f3e a8fc 37bd
000000e0: bcf5 923e 0cfd 1cbe a781 c53e c615 0e3f
000000f0: 6ab1 3d3f b144 c9bd ce7b fb3e e97d b33e
00000100: 0743 d73e 2321 dd3e 13e9 d6bd 3bcf dc3e
00000110: 436a 733e 0873 9a3e a1ea 9b3e 11d8 a43c
00000120: fe9f df3e 5e4d a13e 39d4 fbbd e56b 773e
00000130: 2cc7 893e bd73 7d3f d02d ad3c b2c5 b93e
00000140: 3df2 3abd caa7 c33e d28e 983e 953f a33d
00000150: 4b5d da3e 3176 a53e fd38 da3e d366 b03e
00000160: 7b22 d53c 5ab9 d23e a5db 203f 86c3 86be
00000170: 1406 313e 4643 a13e 4c3f 943e fb90 a73e
00000180: 919d f1bd 5acb c73e be31 713d 7477 243f
00000190: 2a2c 963e ed58 b13e 845a f53e afb0 d13d
000001a0: fd80 ab3e 937c 9e3e cf34 da3e 35d5 a63e
000001b0: 5e76 ac3e dfdc a73e 124e 6ebc ecad e63e
000001c0: 3a40 1bbe 37b1 913d aadd b33e f5d3 9bbc
000001d0: fbbb a73e 9a67 04bd 378e ad3e 0915 d53e
000001e0: bda4 a43c 5b0a efbd 61b0 91be 06a2 073f
000001f0: de10 cf3e 9d4e 9b3e 1ed3 013e 5178 013e
00000200: 23e3 4c3f 02e7 8b3e 59f3 143d 5614 d93d
00000210: c5bf b53e 8106 aa3e 3cd3 743e 90cb 673e
00000220: cb86 80bc c861 bc3d d900 853e 4db4 8c3e
00000230: 1130 ddbb aab2 50bf cee7 4e3f 9c6f 953f
00000240: 282d b2be 73c2 f33e c6b7 773f 8aff 3b3f
00000250: e346 813e a6e1 a4be 52d7 f2be 5f0a 89ba
00000260: 9140 973e d5cb 193e cb81 983e 2a6e 903f
00000270: ff6c bcbe bb62 a23e 10e5 8f3e 53c1 373f
00000280: a1d7 1d3e 22eb f03e b2db 9cbe 8c65 e73d
00000290: 3d21 993e 9b7d a33f b523 d33e 4aae ab3e
000002a0: d954 c7be 68ae 633f 1e09 7d3e 8266 373d
000002b0: c28e 983f e0e2 913e 5c5d 203f eccb b03d
000002c0: f290 5bbe b4f2 1ebb b5bb 283f 7c41 c73d
000002d0: 7124 793e 24a9 2a3e 2caf 353e 05a5 e8be
000002e0: 27e1 febd 02ae 863d ddae 713f 89d5 a63f
000002f0: a8c7 943f 5cd8 8c3f c5d4 4d3f ff17 133f
00000300: 0c32 f13d 40de af3e 922f 8f3f 5c40 d53e
00000310: f14a 123e efc3 7b3e a63f 643e 1795 e23d
00000320: aafe 893e 94e0 913e 7e55 4a3f 4f21 863e
00000330: 222d d03d 7994 e03e 508b 8e3f 10ee 193f
00000340: 98ab 8e3f 89c0 a23e 5d26 4e3f 057d e23d
00000350: 87e5 8b3e c897 963e 6b34 553e d67e b03e
00000360: c0c1 05bd 5cdb 153f 84f6 6a3f 7527 603d
00000370: 3d3a ca3e a5f4 a13e dcad c13e aaed 273f
00000380: 9065 a4bd 7ec1 553e 1d91 843f fa9f a93e
00000390: 308e 453e a0d2 893f d06d 2bbe 9e82 833d
000003a0: f92a 5f3f ad0d b33e 5494 803e aa21 823e
000003b0: 0d9a e93e 67b7 1b3e 3c3a 9c3f d64d 933e
000003c0: c4dc fc3c 1e21 993d 4c66 5c3f 8a98 9a3f
000003d0: a75e 303e f22f a6be c701 683e c60c 793e
000003e0: ccd9 873d 0906 203e 4ebd 67be 2ee6 523f
000003f0: e4e3 9f3e c949 da3e 1c5e 17bb c4c4 b03e
0.6565853 0.36330783 -0.4650313 0.27914834 0.28210577 -0.010161441 0.29573527 0.4608933
-0.056453593 0.005218625 0.46737412 0.03546792 -0.22731367 0.1007125 0.73987067 -0.006142982
-0.77460223 0.143108 0.35576293 0.52327085 0.29705888 -1.4131243 -0.16329354 0.21987188
0.3276184 0.30588448 0.40165335 -0.056139827 0.06402467 0.38844773 0.2740051 0.22251122
-0.16789635 0.30682576 -0.1519107 0.4288315 0.43340006 0.48202726 0.060626533 0.27852985
-0.96142626 0.13003157 0.31632704 0.5387988 0.12290907 0.30164889 0.5645147 0.34438324
0.21414605 -0.20301746 0.43142253 0.1457756 0.63107413 0.1709669 0.2185178 -0.044918686
0.28703105 -0.15330905 0.3857548 0.55501974 0.7409884 -0.09827555 0.49117893 0.35057
0.42043325 0.43189344 -0.10493674 0.43126854 0.23771004 0.30165887 0.30452445 0.02012256
0.43676752 0.3150434 -0.12296338 0.24162252 0.2690977 0.9900473 0.02114001 0.36283642
-0.045641173 0.3821395 0.29796463 0.07971112 0.42649302 0.32316735 0.42621604 0.3445345
0.026017418 0.41157037 0.6283515 -0.26321048 0.17287475 0.31496638 0.28954542 0.327278
-0.117976315 0.39022332 0.05888533 0.6424477 0.2933057 0.34638157 0.4792062 0.10238778
0.33496848 0.30954418 0.42618415 0.3258454 0.33684057 0.327857 -0.014544981 0.45054567
-0.15161219 0.07113879 0.35130054 -0.019021967 0.32760605 -0.032325365 0.33897564 0.4161761
0.020098085 -0.11671897 -0.2845488 0.52981603 0.40442556 0.30333415 0.12678191 0.12643553
0.80034083 0.27324682 0.036364887 0.10599582 0.3549787 0.33208087 0.23908705 0.22636247
-0.015689274 0.09198338 0.2597721 0.2748131 -0.0067501147 -0.8152262 0.80822456 1.1674685
-0.34800076 0.4760929 0.9676479 0.73436797 0.25249395 -0.32203406 -0.474299 -0.0010455361
0.29541448 0.15019162 0.29786524 1.1283619 -0.36801907 0.3171595 0.28104448 0.71779364
0.15414287 0.47054392 -0.30636364 0.112986654 0.2990817 1.2772707 0.4123818 0.3353141
-0.3893192 0.88938 0.24710509 0.044775493 1.1918566 0.28493404 0.62642455 0.08632645
-0.21442011 -0.002425355 0.6591142 0.09729287 0.24330308 0.16666085 0.17742604 -0.454384
-0.12445288 0.06576158 0.94407445 1.3033916 1.162343 1.1003528 0.80402786 0.5745849
0.11777124 0.3434925 1.1186392 0.41650665 0.142864 0.24586461 0.22289905 0.11063593
0.26952106 0.28491652 0.790367 0.26197287 0.101648584 0.43863276 1.1136265 0.6012888
1.1146116 0.31787518 0.8052729 0.11059002 0.27323553 0.29412675 0.20820777 0.34471768
-0.032655478 0.5853784 0.91782403 0.05472513 0.39497557 0.3163196 0.37827957 0.6559702
-0.08027184 0.20874593 1.0356785 0.33129865 0.19292521 1.0767403 -0.16741109 0.064213976
0.87174946 0.3497137 0.25113165 0.2541631 0.45625344 0.15206681 1.2205272 0.28770322
0.030866988 0.0747702 0.8609359 1.2077801 0.17223607 -0.32458454 0.22656928 0.24321279
0.06633338 0.15627302 -0.22630808 0.82382476 0.31228554 0.4263442 -0.0023096865 0.3452512

hidden_layers.2.linear.bias f4 [64]
00000000: 85f3 093d 9b2c a4bf 8b53 0dbf 7f70 37bf
00000010: 1ce0 fdbe 4465 06bf dc34 0dbf 24e3 01be
00000020: 58e0 923f e63e 03bf e4d0 62bf def1 4fbf
00000030: ae82 35bf c739 683e 9abb ffbe 602d 80be
00000040: c16c 6b3f 921e ccbe 5754 c1be 18d7 07bf
00000050: dd76 20bf 0389 5dbf 8fe1 cabe 5c10 01bf
00000060: fe79 10bf e58d eabe ba7c 04bf bbec 6abf
00000070: eef8 f3be c77e 1dbe 2b9a e8be a14f c53e
00000080: e2b2 e4be 42a8 15bf c2e0 1abf 3f8c 54bf
00000090: b137 3dbf 00a3 05bf 2c9d 25bf 0bf9 febe
000000a0: 0c3e 09bf 4e9a 68bf 308e 1cbe f424 28bf
000000b0: 48e7 38bf 089b 04bf 4e39 dfbe 1783 c1be
000000c0: ecae 78be 6c9b b2be cba2 68bf 2f1b cfbe
000000d0: 0561 f23f a414 00bf b1ec c7be c444 00bf
000000e0: b5a1 4ebf 0455 d03e b84e babe 86f4 4ebe
000000f0: 3eea 4fbf 154e 2cbf f0e3 c4be 5379 23bf
0.033679504 -1.2826113 -0.552056 -0.7165603 -0.49585044 -0.5249827 -0.5515878 -0.12684304
1.1474714 -0.5126785 -0.8859999 -0.81228435 -0.70902526 0.2267829 -0.49947816 -0.25034618
0.9196282 -0.39867073 -0.3775966 -0.5306258 -0.6268137 -0.8653719 -0.39625213 -0.5041559
-0.56436145 -0.45811382 -0.5175282 -0.9176747 -0.47650856 -0.15380393 -0.4543012 0.38537315
-0.44667727 -0.58459866 -0.60499203 -0.830265 -0.73913103 -0.52201843 -0.6469295 -0.4979938
-0.536103 -0.9086045 -0.15288615 -0.65681386 -0.7222791 -0.5179906 -0.43598408 -0.37795326
-0.24285477 -0.34884202 -0.908734 -0.40450427 1.8935858 -0.50031495 -0.3904777 -0.5010493
-0.80715495 0.40689862 -0.36388183 -0.20210466 -0.812168 -0.67306644 -0.38455153 -0.63857

output_layer.linear.weight f4 [1, 64]
00000000: 6e51 2f3f c30b fc3f 49ce be3f 1d82 e83f
00000010: ed49 f83f 4718 f13f f950 0140 3dfb 853f
00000020: aced 0dbd 6472 fc3f ed16 0540 3ab3 ee3f
00000030: 409b bf3f 0645 5d3f 69f5 a03f a1a7 d43f
00000040: a219 893e 9ccb e63f ee0f 8e3f 613e b43f
00000050: 5f79 ed3f dfe4 b13f a713 c03f abde 0440
00000060: e59b 0940 5227 0240 9e2c 0340 8e69 c03f
00000070: 72f2 fc3f 7670 653f 925a 0740 03a3 f43e
00000080: a2f2 bd3f 1b65 0240 03da fd3f ae5c e83f
00000090: 1265 c83f ce30 0140 6649 fe3f 9dde 0640
000000a0: 735d 0b40 7844 753f d74c 933f c7e9 913f
000000b0: 2160 0340 c5fb 0440 1b1f eb3f dd6a a23f
000000c0: 809e a63f c7fe ac3f 875d b73f 3517 0440
000000d0: 7977 efbe 78e6 ee3f 63b8 0340 edb4 0540
000000e0: c2e8 0140 87cb 5a3f e3f7 e33f a444 8d3f
000000f0: 94e5 0140 bc67 0240 156b ad3f 9dfb 9f3f
0.68483627 1.9691089 1.4906703 1.8164707 1.939756 1.8835534 2.0205672 1.0467297
-0.03465049 1.9722409 2.0795243 1.8648446 1.4969254 0.86433446 1.2574893 1.6613656
0.2677737 1.8030887 1.1098611 1.4081537 1.8552665 1.3897971 1.5005997 2.0760906
2.15014 2.03365 2.0495982 1.5032213 1.9761488 0.89624727 2.114903 0.47780618
1.4839671 2.037421 1.9832157 1.8153284 1.5655844 2.0186038 1.986615 2.1073372
2.1775787 0.958076 1.1507825 1.1399468 2.0527422 2.0778668 1.8368868 1.2688862
1.301712 1.3515252 1.4325417 2.0639164 -0.46770838 1.8664083 2.058129 2.0891678
2.0298314 0.8546681 1.7810024 1.1036572 2.0296373 2.0375814 1.3548304 1.2498661
