optimal_agent/weights_actor.pth (torch, 71087 bytes, 7 tensors)

hidden_layers.0.linear.weight f4 [64, 3]
-0.4085344 -0.22972207 -0.79859984 0.62590766 0.6681367 0.68120474 0.20686306 -0.78509206
0.08645886 0.6160204 0.8361592 0.08062622 0.256231 -0.98256344 0.024427697 0.70287085
-1.0302209 -0.22325876 -0.22996722 -1.3136984 -0.23247445 0.29145798 -0.3366421 -0.42298514
0.41828328 -0.6842274 -0.5253243 0.4044043 0.6277422 0.41715023 0.2281995 0.9435232
-0.39610773 -0.11451942 0.3043878 -0.8136464 -0.32217893 0.7748938 -0.7281998 -0.5063552
0.293419 -0.26915702 -0.17580068 -0.0771708 -0.3421422 0.58543354 -0.49090666 0.6796926
-0.45582002 -0.08440346 -0.43193114 -0.39091277 -0.7923678 -0.2904586 0.10321228 -0.5992802
-0.731263 0.11079533 -1.0105832 -0.26444346 0.4059409 -0.86247253 -0.2349649 0.019892437
-0.51669955 0.48723513 0.10125766 0.5164815 -0.17193504 0.09284842 -1.4331375 -0.40870512
0.4937101 0.23776393 -0.021428632 0.010039793 -1.0509884 -0.37188613 0.54380184 0.23012519
0.5733743 -0.11581449 0.68668604 -0.66211957 -0.6230235 -0.9384625 -0.109224446 0.66331124
-0.99332064 -0.2264538 0.37511557 -0.5846202 0.4282499 -0.3576961 0.1098311 -0.94143564
0.59042 0.3427215 -0.2766175 -0.030484242 0.6099344 -0.25699845 0.23951942 -0.18697703
0.5763274 0.22569405 0.388577 0.35224608 -0.4657673 -0.8169993 0.03684321 -0.21043478
0.27152866 -0.549337 0.38664132 -1.0541422 -0.47522855 -0.17673199 -0.023725417 0.6424158
-0.45278925 1.0555781 0.15326269 -0.23460063 -0.11344083 0.32236823 0.24164155 0.90930355
-0.10036425 0.25846663 1.2616909 -0.52743465 0.15714546 -0.95991296 -0.033545796 0.33622524
-0.5191186 -0.105690554 0.649707 -0.53599757 0.1710713 -0.034345042 0.15134406 0.36834148
0.58921236 0.49522135 -0.37751418 -0.12177826 -1.2459366 -0.20169567 0.45322233 -0.056504767
0.24163975 -0.74914557 0.75480056 0.026876474 0.07306455 -1.2803123 -0.2825587 0.29366934
-1.0619917 0.086501226 0.7323493 -0.34062463 -0.20394002 -0.35466978 -0.5978924 0.2416224
-0.27318585 0.6971975 0.08244436 0.28936976 -1.2484872 0.026177526 -0.62644327 -0.088817514
0.44670203 0.0031692665 -0.03227836 -0.5635593 0.464067 0.91047114 0.51440865 0.50359446
0.28251752 -0.12885095 -0.23418935 -0.63084114 -0.08024305 0.105130665 -0.73849344 -0.80921054
00000000: 6c2b d1be 433c 6bbe 0a71 4cbf 7c3b 203f
00000010: 020b 2b3f 6f63 2e3f e9d3 533e cbfb 48bf
00000020: 5811 b13d 83b3 1d3f 880e 563f 5c1f a53d
00000030: b630 833e 4789 7bbf 981c c83c 58ef 333f
00000040: 47de 83bf f29d 64be 877c 6bbe 4527 a8bf
00000050: c80d 6ebe fb39 953e 5a5c acbe 8291 d8be
00000060: 3a29 d63e 8729 2fbf a77b 06bf 150e cf3e
00000070: b6b3 203f b794 d53e 21ad 693e bd8a 713f
00000080: a2ce cabe 2889 eabd b8d8 9b3e 214b 50bf
00000090: a3f4 a4be 715f 463f 4d6b 3abf 7fa0 01bf
000000a0: 043b 963e f3ce 89be 1805 34be b90b 9ebd
000000b0: 432d afbe f9de 153f 1e58 fbbe 5600 2e3f
000000c0: 3e61 e9be b9db acbd 1426 ddbe b825 c8be
000000d0: 9ed8 4abf fdb6 94be f660 d33d 6d6a 19bf
000000e0: 0d34 3bbf a9e8 e23d ca5a 81bf 2265 87be
000000f0: 7cd7 cf3e 00cb 5cbf a49a 70be 77f5 a23c
00000100: 6c46 04bf e276 f93e 2d60 cf3d 2238 043f
00000110: bd0f 30be 5027 be3d 0d71 b7bf cc41 d1be
00000120: 92c7 fc3e 6378 733e 198b afbc f27d 243c
00000130: ca86 86bf dc67 bebe 9936 0b3f f0a5 6b3e
00000140: a8c8 123f 2630 edbd a8ca 2f3f ab80 29bf
00000150: 787e 1fbf 143f 70bf 11b1 dfbd c4ce 293f
00000160: 434a 7ebf 81e3 67be 260f c03e aba9 15bf
00000170: 9243 db3e f123 b7be 21ef e03d ed01 71bf
00000180: c425 173f 3179 af3e cfa0 8dbe 17ba f9bc
00000190: a924 1c3f 4d95 83be 9444 753e e876 3fbe
000001a0: 318a 133f 571c 673e 91f3 c63e 9959 b43e
000001b0: 0d79 eebe de26 51bf e8e8 163d 377c 57be
000001c0: ce05 8b3e 5aa1 0cbf daf5 c53e 22ee 86bf
000001d0: 2851 f3be 3bf9 34be ce5b c2bc 5d75 243f
000001e0: fed3 e7be 2f1d 873f e5f0 1c3e 263b 70be
000001f0: aa53 e8bd 730d a53e e270 773e 1ec8 683f
00000200: c68b cdbd bd55 843e 167f a13f f505 07bf
00000210: bdea 203e dbbc 75bf 5167 09bd b725 ac3e
00000220: f5e4 04bf 4a74 d8bd 3353 263f 2337 09bf
00000230: 512d 2f3e 63ad 0cbd f0f9 1a3e 4197 bc3e
00000240: 9fd6 163f a78d fd3e 8a49 c1be e166 f9bd
00000250: da7a 9fbf 4f89 4ebe c20c e83e 8b71 67bd
00000260: 6970 773e 01c8 3fbf 9c3a 413f 0d2c dc3c
00000270: dea2 953d 46e1 a3bf 89ab 90be d45b 963e
00000280: 58ef 87bf 8e27 b13d 3e7b 3b3f 5a66 aebe
00000290: a7d5 50be 4797 b5be 7a0f 19bf dd6b 773e
000002a0: 04df 8bbe 897b 323f 97d8 a83d 4628 943e
000002b0: 6ece 9fbf 4072 d63c 965e 20bf f5e5 b5bd
000002c0: 21b6 e43e 78b3 4f3b 5036 04bd 6c45 10bf
000002d0: 319a ed3e a314 693f 49b0 033f 91eb 003f
000002e0: 23a6 903e 81f1 03be 55cf 6fbe ce7e 21bf
000002f0: 7856 a4bd bf4e d73d e80d 3dbf 6c28 4fbf

hidden_layers.0.linear.bias f4 [64]
-0.40280926 -0.48391068 -0.4573354 -0.12613595 -0.23479715 0.35732555 0.14796972 -0.5149179
0.4089821 0.15391831 -0.07940775 -0.06942631 -0.21391705 -0.40706918 0.46375623 -0.28725067
-0.00033045863 -0.29767722 0.07307752 0.16315745 -0.42613235 0.13653202 0.35603127 0.33731812
-0.049957156 -0.11938776 0.36466146 -0.08626657 0.45273194 -0.21148981 0.14657964 -0.33128312
0.01584818 -0.22176243 -0.22442786 -0.03553833 0.13209797 -0.30119386 -0.17916583 0.21823052
0.4315977 -0.1454783 0.12083562 0.15085109 -0.23852877 -0.09536839 0.41032833 0.01656509
0.014348347 0.010779143 -0.2137982 -0.35238814 0.3116944 0.27604508 0.27845353 -0.016549895
0.4727429 -0.21149825 -0.4312035 0.0348103 -0.36681688 0.46552283 -0.024374278 0.17575787
00000000: 043d cebe 24c3 f7be de27 eabe c829 01be
00000010: aa6e 70be 60f3 b63e 6085 173e a9d1 03bf
00000020: 1a66 d13e c39c 1d3e 88a0 a2bd 622f 8ebd
00000030: 120d 5bbe 5f6b d0be 7571 ed3e 8512 93be
00000040: 6841 adb9 2669 98be aba9 953d bf12 273e
00000050: 052e dabe 0dcf 0b3e bb49 b63e f6b4 ac3e
00000060: e09f 4cbd 9281 f4bd e8b4 ba3e 87ac b0bd
00000070: 7bcc e73e c990 58be f918 163e f19d a9be
00000080: 0bd4 813c b115 63be 6bd0 65be a490 11bd
00000090: b144 073e 1536 9abe 3f77 37be d277 5f3e
000000a0: 60fa dc3e 43f8 14be aa78 f73d b578 1a3e
000000b0: e340 74be 8150 c3bd 8e16 d23e 83b3 873c
000000c0: 5415 6b3c 019b 303c eaed 5abe 386c b4be
000000d0: 6996 9f3e c855 8d3e 7691 8e3e a593 87bc
000000e0: 5b0b f23e ff92 58be b5c6 dcbe 3f95 0e3d
000000f0: 6ccf bbbe 0259 ee3e 91ac c7bc dff9 333e

hidden_layers.1.linear.weight f4 [128, 64]
-0.019270731 0.09651099 -0.011868831 -0.13573721 0.2294966 0.03802907 0.12240914 0.044603564
0.060425706 -0.16070719 -0.049762256 0.0093263965 -0.038810533 -0.00045977102 -0.009842484 0.11422051
0.019625077 0.07422684 0.122355044 0.1950733 0.12847762 -0.06668842 -0.11071084 0.08153437
-0.09690293 0.2840928 -0.033344615 -0.107150584 -0.03541267 0.01531205 0.12421011 0.010252734
-0.001378505 -0.054472916 -0.1108601 -0.08308211 0.14608657 -0.026320687 0.24485478 -0.1285607
-0.21991941 0.06130321 -0.17607053 -0.21377045 0.1379981 0.075702496 0.044182163 0.044401553
-0.13373731 0.07753805 -0.06870399 -0.23386596 0.17137147 0.04998621 -0.06419696 0.16055211
-0.08298851 0.078174174 -0.0073439693 -0.15005428 -0.15730089 0.000859684 0.035329424 0.06970992
-0.13993996 -0.23282394 -0.06367998 -0.18276264 -0.024286393 0.07356398 0.12988536 -0.040971685
-0.053263016 0.042687766 -0.059447564 0.04526652 -0.13518006 -0.110243194 0.024730796 -0.1475048
-0.12125348 0.078437865 -0.0081227925 0.17109562 0.07512466 -0.015421445 -0.13989745 0.13364139
-0.032298412 0.0453059 -0.10101892 -0.18751422 0.12503423 0.10165646 -0.10755569 -0.17430203
0.07859932 -0.17490523 -0.071597405 0.051231954 0.18077576 -0.0821692 0.120977096 0.021725474
0.013083652 0.007997878 -0.1955007 -0.115788706 0.09858014 0.023634132 -0.16013795 -0.053042088
-0.07298431 0.011429177 -0.17079486 -0.0117629655 0.03535001 0.094071016 -0.020790998 0.14575271
0.008586914 -0.03619529 -0.00080641895 0.063442506 -0.018058985 -0.043922726 0.17737631 0.06096444
0.00432158 0.33871225 -0.05781517 0.22644721 -0.0418688 -0.07848242 0.008052237 -0.11735059
-0.15697467 0.14079212 0.1717972 -0.017168924 0.09710827 -0.048498094 0.14210288 0.084251285
0.14822993 -0.0738199 -0.029940786 -0.05405783 -0.12999395 -0.07463505 0.1794487 -0.16559575
-0.045078464 0.09150781 -0.012170872 0.12149734 0.0031659326 -0.17782423 -0.087497585 0.16866443
0.087926276 0.200761 0.012873956 0.066258304 -0.20513128 0.09048115 -0.011745174 0.055223715
-0.06850664 -0.08640622 0.19422224 0.061611906 -0.16761914 -0.17736626 -0.05013673 0.11693325
-0.09899242 -0.15518165 0.10460522 -0.045771617 -0.2023343 0.0430763 -0.15277103 -0.16739266
-0.016950982 -0.2261345 -0.15871795 0.043897253 0.37708685 0.024926031 0.04980243 -0.0050391187
-0.46472377 -0.066191055 -0.09302616 -0.015541715 -0.036129087 -0.33753744 -0.34145397 -0.12402568
-0.3146041 0.049947985 -0.06175045 -0.1588044 -0.030708037 0.00091265613 -0.14607772 -0.1022071
-0.10987076 -0.20543961 -0.27333984 -0.30452487 -0.061432287 0.0072602406 -0.038577374 -0.19112231
-0.08614718 -0.42440766 -0.08756814 0.023923058 0.03674765 0.05375282 -0.062984005 -0.31505156
0.10578239 -0.018912384 -0.037766445 0.13772064 0.012608027 -0.12813234 -0.25600109 0.049444787
0.17096591 0.08074967 0.048737813 0.026994264 -0.15761985 -0.16452014 -0.09766808 -0.057770353
-0.06067158 -0.2344885 -0.14633523 0.15300159 -0.16341478 -0.32482868 -0.07639812 -0.101501904
-0.008016342 -0.13854899 0.070445485 -0.216761 -0.12710589 0.1166878 -0.24241728 -0.20903745
00000000: a7dd 9dbc 8ea7 c53d 7c75 42bc b2fe 0abe
00000010: 2801 6b3e 5fc4 1b3d a5b1 fa3d 3ab2 363d
00000020: f280 773d 6d90 24be 82d3 4bbd becd 183c
00000030: cbf7 1ebd 6c0d f1b9 5f42 21bc 71ec e93d
00000040: c5c4 a03c 3e04 983d 4895 fa3d 4cc1 473e
00000050: a38f 033e f093 88bd 5dbc e2bd 7efb a63d
00000060: 0b75 c6bd 9d74 913e 5d94 08bd c471 dbbd
00000070: e00c 11bd 64df 7a3c df61 fe3d 15fb 273c
00000080: f4ae b4ba fe1e 5fbd 9f0a e3bd f426 aabd
00000090: b897 153e 7b9e d7bc 36bb 7a3e 6ba5 03be
000000a0: 8e32 61be 1319 7b3d d54b 34be a4e6 5abe
000000b0: 604f 0d3e e909 9b3d 5bf8 343d 67de 353d
000000c0: 6ff2 08be 45cc 9e3d adb4 8cbd 8f7a 6fbe
000000d0: 017c 2f3e 57be 4c3d b279 83bd c667 243e
000000e0: e1f5 a9bd c819 a03d aea5 f0bb d4a7 19be
000000f0: 7c13 21be 6b5c 613a 96b5 103d 13c4 8e3d
00000100: 6c4c 0fbe 6669 6ebe a66a 82bd 2126 3bbe
00000110: 42f4 c6bc b6a8 963d ab00 053e edd1 27bd
00000120: 522a 5abd 5ed9 2e3d 4a7f 73bd 6369 393d
00000130: a46c 0abe 2fc7 e1bd 3d98 ca3c 800b 17be
00000140: bf53 f8bd 08a4 a03d 7615 05bc b133 2f3e
00000150: f5da 993d 3aaa 7cbc 4741 0fbe 4ad9 083e
00000160: 574b 04bd ae92 393d 02e3 cebd ba03 40be
00000170: f908 003e 4331 d03d 2846 dcbd 3b7c 32be
00000180: aef8 a03d 5b1a 33be a9a1 92bd 99d8 513d
00000190: 481d 393e 5348 a8bd d7c2 f73d 9ff9 b13c
000001a0: d05c 563c 8809 033c 5631 48be a122 edbd
000001b0: 62e4 c93d 5e9c c13c 34fb 23be a942 59bd
000001c0: cc78 95bd 7141 3b3c d9e4 2ebe 74b9 40bc
000001d0: 2ccb 103d 4ea8 c03d e251 aabc 3340 153e
000001e0: 21b0 0c3c 8341 14bd dc65 53ba 25ee 813d
000001f0: 70f0 93bc 51e8 33bd 23a2 353e d9b5 793d
00000200: 0a9c 8d3b b16b ad3e 9acf 6cbd c7e1 673e
00000210: 9e7e 2bbd 64bb a0bd 88ed 033c 8255 f0bd
00000220: f8bd 20be cf2b 103e 9beb 2f3e d8a5 8cbc
00000230: b3e0 c63d f0a5 46bd 6b83 113e f08b ac3d
00000240: 96c9 173e e32e 97bd 6146 f5bc be6b 5dbd
00000250: 221d 05be 43da 98bd 66c1 373e ef91 29be
00000260: 32a4 38bd 7268 bb3d 5668 47bc 99d3 f83d
00000270: 897b 4f3b 8e17 36be ef31 b3bd 5eb6 2c3e
00000280: b112 b43d 4b94 4d3e 49ed 523c 6fb2 873d
00000290: ef0d 52be 2e4e b93d d56e 40bc 4332 623d
000002a0: 364d 8cbd bff5 b0bd 32e2 463e c45c 7c3d
000002b0: 5aa4 2bbe 809f 35be 2c5c 4dbd b37a ef3d
000002c0: 8abc cabd f0e7 1ebe 433b d63d 057b 3bbd
000002d0: b930 4fbe c670 303d 0270 1cbe fb68 2bbe
000002e0: c9dc 8abc cd8f 67be f586 22be 9bcd 333d
000002f0: 8711 c13e ad31 cc3c a2fd 4b3d 311f a5bb
00000300: 46f0 edbe 2d8f 87bd 8084 bebd ada2 7ebc
00000310: 18fc 13bd b5d1 acbe 0ed3 aebe 2d01 febd
00000320: ca13 a1be 4296 4c3d 0aee 7cbd 9f9d 22be
00000330: 6c8f fbbc 513f 6f3a 6695 15be f551 d1bd
00000340: ec03 e1bd c35e 52be 33f3 8bbe afea 9bbe
00000350: 6ca0 7bbd 50e7 ed3b 4f03 1ebd 91b5 43be
00000360: ef6d b0bd f64b d9be ed56 b3bd 4afa c33c
00000370: b484 163d eb2b 5c3d c2fd 80bd 704e a1be
00000380: 70a4 d83d 25ee 9abc fdb0 1abd a406 0d3e
00000390: e691 4e3c 2035 03be 9312 83be 9e86 4a3d
000003a0: b011 2f3e 1560 a53d 4da1 473d 1323 dd3c
000003b0: 1967 21be f877 28be 3406 c8bd 9ba0 6cbd
000003c0: c382 78bd c11d 70be e7d8 15be 73ac 1c3e
000003d0: 3456 27be f24f a6be 9e76 9cbd 3be0 cfbd
000003e0: fa56 03bc c9df 0dbe b945 903d 98f6 5dbe
000003f0: 0c28 02be 03fa ee3d 3c3c 78be ea0d 56be

hidden_layers.1.linear.bias f4 [128]
0.02676381 -0.05842991 -0.029942183 0.0810667 0.07933765 -0.07939857 -0.036142893 0.07258202
0.026467731 -0.010249182 0.105484545 -0.07656078 0.120308064 -0.044551056 -0.03522215 0.036214348
0.016870162 -0.19251347 0.12825501 0.08256194 -0.06319829 -0.038082585 -0.056321733 0.088138536
-0.03857189 -0.12720843 -0.16713275 -0.076578505 -0.05637809 -0.0187515 -0.056721114 0.09554463
0.02950654 -0.21798529 -0.06152341 -0.024965942 -0.16825041 0.029229753 -0.04941279 -0.119885266
0.012809361 0.0013404682 0.0943793 0.11215277 -0.013334638 -0.043590367 0.08322042 0.08518313
0.029330235 0.070487365 0.041781303 -0.048073176 -0.049189247 0.053632244 -0.037348542 -0.09096458
0.024885679 0.06650533 -0.06530901 -0.14323829 0.045428827 -0.062181737 -0.18522467 -0.068323575
0.08819236 0.102156006 -0.024771102 0.078946605 -0.05881597 -0.12396834 -0.10230402 0.022646584
-0.036106717 -0.15883158 -0.017993411 -0.07483349 -0.001245885 0.03799913 -0.059324227 -0.11817251
0.047098547 0.07716135 -0.044822667 0.081886604 -0.06931016 -0.20635301 -0.05124648 0.065702915
0.057527505 -0.03252197 0.08053474 0.094998136 0.0854868 -0.18267046 -0.04825842 -0.044823144
0.0723132 -0.016901983 0.024027133 0.024767509 -0.037605446 -0.004784326 -0.13340391 -0.18696745
0.11746916 -0.0092535205 -0.03430926 0.051615037 -0.06249342 -0.01273312 0.0034448444 0.0019837497
0.077713266 -0.06189446 0.047606383 -0.09671691 -0.0989349 -0.024196945 -0.04002513 -0.041188724
0.03802028 -0.053539015 -0.08978469 -0.035261292 -0.10982595 -0.13721786 -0.21035178 -0.042808883
00000000: c73f db3c 3454 6fbd 4f49 f5bc 4c06 a63d
00000010: c77b a23d b89b a2bd 920a 14bd e2a5 943d
00000020: dbd2 d83c 2fec 27bc 4808 d83d e6cb 9cbd
00000030: 1364 f63d 2b7b 36bd 1a45 10bd 7f55 143d
00000040: 4b33 8a3c 4022 45be 4855 033e 3c16 a93d
00000050: 1b6e 81bd 7cfc 1bbd 9eb1 66bd fa81 b43d
00000060: 8ffd 1dbd ed42 02be d924 2bbe 31d5 9cbd
00000070: b6ec 66bd bf9c 99bc 6654 68bd e7ac c33d
00000080: b3b7 f13c 8937 5fbe f9ff 7bbd 6085 ccbc
00000090: d649 2cbe 3c73 ef3c 1165 4abd 6886 f5bd
000000a0: 5bde 513c a6b2 af3a ef49 c13d 5ab0 e53d
000000b0: 8779 5abc d08b 32bd 786f aa3d 7e74 ae3d
000000c0: f645 f03c ae5b 903d df22 2b3d 61e8 44bd
000000d0: aa7a 49bd 7cad 5b3d c9fa 18bd a34b babd
000000e0: 0ddd cb3c f233 883d bbc0 85bd 0fad 12be
000000f0: 9413 3a3d 47b2 7ebd 89ab 3dbe 3bed 8bbd
00000100: 329e b43d 2b37 d13d c4ec cabc c2ae a13d
00000110: 04e9 70bd 1de3 fdbd c584 d1bd 5485 b93c
00000120: a3e4 13bd bfa4 22be eb66 93bc 4d42 99bd
00000130: f74c a3ba faa4 1b3d f6fd 72bd 6e04 f2bd
00000140: 68ea 403d c506 9e3d f997 37bd 2ab4 a73d
00000150: 7cf2 8dbd 344e 53be d4e7 51bd 408f 863d
00000160: f6a1 6b3d c235 05bd 66ef a43d 628e c23d
00000170: b413 af3d f70d 3bbe 9faa 45bd 7998 37bd
00000180: f118 943d 0776 8abc 8dd4 c43c 3be5 ca3c
00000190: 2b08 1abd d6c5 9cbb 099b 08be 6574 3fbe
000001a0: ac93 f03d 149c 17bc de87 0cbd 4a6a 533d
000001b0: 1af9 7fbd 939e 50bc e6c2 613b cc01 023b
000001c0: 2228 9f3d 0c85 7dbd e9fe 423d 8413 c6bd
000001d0: 619e cabd ac38 c6bc 64f1 23bd 82b5 28bd
000001e0: 27bb 1b3d ba4b 5bbd 09e1 b7bd 256e 10bd
000001f0: 6dec e0bd d782 0cbe 7566 57be 5e58 2fbd

hidden_layers.2.linear.weight f4 [64, 128]
-0.012277458 0.013172467 -0.15036969 -0.18658963 -0.16569835 -0.13718717 0.15377474 0.06281694
-0.25480393 -0.07457351 -0.03670897 -0.06139202 -0.16980858 0.14394969 -0.027604464 -0.09249901
0.025961468 -0.08386107 -0.057186924 -0.0053788964 0.028584044 -0.14447048 -0.12117013 -0.09734979
0.09817026 -0.12266717 -0.12616365 0.0993615 -0.07437893 -0.0048898165 -0.10468949 0.07576846
-0.069181904 -0.16301632 -0.12115962 -0.0018250953 -0.062395412 -0.16841294 -0.15386753 0.024320727
-0.054576337 -0.05500784 -0.061511077 0.07265106 -0.13957429 -0.28142554 0.047000907 -0.03224846
0.094596334 0.09164757 0.039468244 -0.018675128 0.07573345 -0.09883433 -0.15367968 -0.045103118
-0.028578093 -0.079285175 -0.07630579 -0.06452817 -0.025784163 -0.08208408 -0.015144825 0.19326034
0.014435536 -0.20996325 0.08658452 0.0045423172 -0.020616753 -0.039427467 0.03727929 -0.15991923
0.10767346 -0.09631512 -0.13087365 0.051670283 -0.099572025 0.0069463495 0.2073771 -0.16960356
0.09552599 -0.10665826 0.07170716 -0.021438485 0.098623045 -0.14669804 -0.04714032 -0.012370914
0.0018870955 -0.13793518 -0.14579682 -0.021494588 0.10539904 -0.1535758 0.005471682 -0.018146249
0.0577367 0.016364237 -0.024791034 -0.23111627 -0.22399725 -0.05542812 -0.20143494 -0.098464414
-0.041082226 -0.08278729 -0.09348441 -0.13915089 -0.09083613 0.04286382 0.03738833 -0.082659505
-0.15341 0.06227395 -0.076022804 -0.11411431 -0.045118637 0.0015583135 -0.11392306 0.04832619
-0.12435478 -0.08997537 -0.10688947 -0.29770952 -0.03141857 -0.06728778 -0.1281103 0.04091308
-0.13064119 0.27259916 0.118871674 0.0593277 0.009858843 0.0011306213 -0.2785429 0.2276888
0.6856691 -0.050600424 0.13790642 0.17739235 0.09947649 0.12622185 0.1361881 -0.012831573
0.10239405 0.4803194 0.17927438 0.04969714 -0.056869294 -0.21333978 -0.17318699 0.06454992
0.11590037 -0.38745716 -0.022022784 0.11466553 -0.1046063 0.05471346 0.012269579 -0.07411517
0.0070205666 -0.0011986684 -0.1122961 0.22065601 -0.18789552 0.14168568 -0.13478346 -0.14873017
0.0011843734 0.030664777 0.13452327 0.016092438 -0.25847965 0.30886018 0.020284683 0.27792317
0.1270022 0.1434426 0.1524667 0.115001634 -0.005509201 0.18297821 0.56432545 0.022754103
0.1440127 0.023994112 0.2580048 0.1205849 0.13159338 0.11973902 -0.007867968 -0.34337464
0.32999676 -0.053752854 0.26018673 0.031841908 0.12802653 0.08881818 0.22476256 -0.16871718
0.042346157 -0.26359135 0.023563279 -0.0095061995 -0.007801327 0.09567209 -0.0049715117 0.33606407
0.0011617871 0.22879112 -0.107020766 0.14912504 -0.21972744 0.14380454 0.0148583995 0.21036981
-0.04616528 0.10554757 0.109044075 0.1600446 -0.26907325 -0.17661084 -0.1342026 0.117017366
0.12618272 0.23455144 -0.21887262 0.27550185 -0.33388925 0.29783452 -0.07513263 0.09203783
0.06086118 -0.15645996 0.09321333 0.50320554 -0.23984665 0.44166455 -0.08917932 -0.16152357
-0.0014358007 0.19491006 -0.0018205015 -0.080593355 -0.04308895 0.20779167 0.56918544 0.082851835
0.028069083 0.0966714 0.07800325 0.048329372 -0.11448982 0.54548407 -0.056714423 0.41388854
00000000: 6427 49bc 55d1 573c 83fa 19be 5a11 3fbe
00000010: d4ac 29be cb7a 0cbe 2077 1d3e 2ba6 803d
00000020: a975 82be ffb9 98bd 255c 16bd 3376 7bbd
00000030: 4de2 2dbe 8c67 133e c222 e2bc 1f70 bdbd
00000040: 25ad d43c 5abf abbd d63c 6abd 7441 b0bb
00000050: 1629 ea3c 12f0 13be 0c28 f8bd 545f c7bd
00000060: 7d0d c93d ed38 fbbd 0b31 01be 0b7e cb3d
00000070: fb53 98bd c13a a0bb 7167 d6bd 7f2c 9b3d
00000080: 3eaf 8dbd c0ed 26be 8922 f8bd 0938 efba
00000090: 5592 7fbd 7174 2cbe 738f 1dbe 433c c73c
000000a0: 708b 5fbd e74f 61bd 0af3 7bbd 14ca 943d
000000b0: 90ec 0ebe 0217 90be 0684 403d f616 04bd
000000c0: b9bb c13d b9b1 bb3d 74a9 213d 95fc 98bc
000000d0: 241a 9b3d a769 cabd 355e 1dbe 0cbe 38bd
000000e0: 9b1c eabc 4460 a2bd 3646 9cbd 5827 84bd
000000f0: 4f39 d3bc b31b a8bd 0022 78bc 0ae6 453e
00000100: 0783 6c3c 9b00 57be 3a53 b13d b8d7 943b
00000110: 77e4 a8bc b27e 21bd 2bb2 183d dec1 23be
00000120: e783 dc3d dd40 c5bd be03 06be 38a4 533d
00000130: 6bec cbbd 349e e33b aa5a 543e 8eac 2dbe
00000140: 21a3 c33d a56f dabd 34db 923d c39f afbc
00000150: e1fa c93d 0338 16be 3516 41bd 60af 4abc
00000160: 6b58 f73a e13e 0dbe c34b 15be 6b15 b0bc
00000170: 74db d73d f942 1dbe cc4b b33b 71a7 94bc
00000180: 517d 6c3d 4b0e 863c 9116 cbbc bea9 6cbe
00000190: 895f 65be 9908 63bd f644 4ebe b6a7 c9bd
000001a0: d645 28bd 628c a9bd c174 bfbd 927d 0ebe
000001b0: 4b08 babd f991 2f3d 8124 193d 6349 a9bd
000001c0: 8317 1dbe f812 7f3d d8b1 9bbd c3b4 e9bd
000001d0: 52ce 38bd 5340 cc3a 7e50 e9bd aff1 453d
000001e0: b8ad febd 0245 b8bd dee8 dabd 626d 98be
000001f0: c2b0 00bd 2dce 89bd 592f 03be 7994 273d
00000200: cec6 05be 1e92 8b3e fe72 f33d 9a01 733d
00000210: fc86 213c 5b31 943a 2d9d 8ebe 4127 693e
00000220: 0388 2f3f 6442 4fbd 5737 0d3e 57a6 353e
00000230: 54ba cb3d 4d40 013e e574 0b3e 853b 52bc
00000240: f9b3 d13d 6dec f53e b493 373e 3a8f 4b3d
00000250: c7ef 68bd be75 5abe ee57 31be c032 843d
00000260: 2c5d ed3d c960 c6be 2069 b4bc c3d5 ea3d
00000270: d43b d6bd 391b 603d 5806 493c b2c9 97bd
00000280: c80c e63b a31c 9dba 7ffb e5bd a6f3 613e
00000290: af67 40be 0d16 113e ad04 0abe b94c 18be
000002a0: fa3c 9b3a b334 fb3c 78c0 093e 4ad4 833c
000002b0: 7257 84be ec22 9e3e 102c a63c f24b 8e3e
000002c0: dd0c 023e 9ee2 123e 3b20 1c3e fa85 eb3d
000002d0: 8786 b4bb a45e 3b3e a277 103f d066 ba3c
000002e0: 1178 133e 4d8f c43c 3519 843e 37f5 f63d
000002f0: 6ac0 063e bb39 f53d a6e8 00bc cdce afbe
00000300: 56f5 a83e f42b 5cbd 3237 853e a96c 023d
00000310: 6319 033e 4ee6 b53d 2828 663e 32c4 2cbe
00000320: 2a73 2d3d 72f5 86be c707 c13c e4bf 1bbc
00000330: 46a2 ffbb bbef c33d 10e8 a2bb 9710 ac3e
00000340: 1b47 983a 3848 6a3e b42d dbbd 3cb4 183e
00000350: 3b00 61be 7f41 133e a570 733c 2f6b 573e
00000360: ce17 3dbd 5329 d83d 8052 df3d bbe2 233e
00000370: f8c3 89be 79d9 34be 686c 09be cda6 ef3d
00000380: 0b36 013e 412e 703e 2520 60be 940e 8d3e
00000390: 88f3 aabe c47d 983e 23df 99bd 547e bc3d
000003a0: 9349 793d 0a37 20be a1e6 be3d 14d2 003f
000003b0: 5c9a 75be db21 e23e a6a3 b6bd 6f66 25be
000003c0: 7a31 bcba 8196 473e e59d eeba 210e a5bd
000003d0: 0a7e 30bd 57c7 543e 23b6 113f 39ae a93d
000003e0: 22f1 e53c a8fb c53d 2bc0 9f3d 05f5 453d
000003f0: a479 eabd d8a4 0b3f 624d 68bd 33e9 d33e

hidden_layers.2.linear.bias f4 [64]
-0.03417508 -0.051108804 -0.0036024821 0.029225577 8.498271e-05 0.00029961034 0.057535745 0.031036876
-0.0020105734 -0.15698442 0.07335713 0.037096266 -0.13417365 -0.09707781 -0.08127729 0.061667643
-0.069928735 -0.05903823 -0.020076703 -0.065395 -0.10610985 -0.13180183 0.048114847 0.072236314
0.044556987 -0.017212605 0.004702824 0.06136603 0.038199417 0.033198666 0.07444932 -0.08156756
-0.09032187 -0.11232792 -0.050159793 0.045363937 -0.026735788 0.087429605 -0.038406234 -0.08141136
-0.1280087 -0.01771772 0.060719617 -0.0757444 0.021780428 -0.13067019 -0.003409297 0.082582995
0.012040226 -0.060090866 -0.04069532 0.00921523 -0.040855274 -0.11946673 -0.016568571 0.04322732
0.061005756 -0.10203176 0.0034933249 -0.091203995 -0.03517316 -0.06970127 0.059882864 0.008193421
00000000: 2bfb 0bbd 7757 51bd 9f17 6cbb 7a6a ef3c
00000010: bf38 b238 0515 9d39 9aaa 6b3d 0c41 fe3c
00000020: d3c3 03bb 86c0 20be 433c 963d 41f2 173d
00000030: d164 09be bbd0 c6bd b574 a6bd 3697 7c3d
00000040: cc36 8fbd 12d2 71bd e677 a4bc d0ed 85bd
00000050: 1f50 d9bd 0ff7 06be 1314 453d a2f0 933d
00000060: 6381 363d 7301 8dbc 261a 9a3b f25a 7b3d
00000070: fe76 1c3d 53fb 073d e378 983d e50c a7bd
00000080: acfa b8bd 2e0c e6bd 5b74 4dbd 89cf 393d
00000090: 0305 dbbc 4b0e b33d db4f 1dbd 00bb a6bd
000000a0: b614 03be c024 91bc 22b5 783d e11f 9bbd
000000b0: de6c b23c 68ce 05be 836e 5fbb 4621 a93d
000000c0: 5e44 453c d721 76bd 23b0 26bd 7afb 163c
000000d0: dc57 27bd f9aa f4bd d0ba 87bc 210f 313d
000000e0: 2ce1 793d 07f6 d0bd 44f0 643b 29c9 babd
000000f0: bb11 10bd 8abf 8ebd bc47 753d b33d 063c

output_layer.linear.weight f4 [1, 64]
-0.06853743 0.3128131 -0.15972921 0.004556649 -0.17117581 -0.19081956 -0.087917976 -0.20246302
-0.18482293 0.28824836 0.028647216 0.21816492 -0.12764426 0.000904593 0.11326589 -0.15687634
-0.3583138 -0.15414537 0.11350908 0.15160543 -0.0078885285 -0.13312548 0.0013469509 -0.16901878
0.33956626 -0.14317195 0.08334308 0.0022030906 -0.0973543 -0.15767732 0.17689537 -0.15229619
0.07276328 -0.21441565 -0.068367176 -0.00047159812 0.18338394 0.14000489 0.25937903 0.16601567
0.3001646 0.1225179 0.07961753 -0.21639392 -0.10690641 -0.19239162 0.093596645 0.16776313
-0.0009945362 -0.20676267 -0.034496788 -0.07217718 -0.15739879 -0.21735267 -0.21587092 0.00023654985
0.0008199952 -0.13807423 0.124694936 0.17898473 0.14221857 -0.06889108 0.46465245 0.13466793
00000000: 5a5d 8cbd 0a29 a03e 0e90 23be f14f 953b
00000010: b648 2fbe 3466 43be 570e b4bd 7752 4fbe
00000020: 3942 3dbe 4a95 933e 91ad ea3c a066 5f3e
00000030: 2db5 02be 3522 6d3a f2f7 e73d 31a4 20be
00000040: e874 b7be 49d8 1dbe 7377 e83d 743e 1b3e
00000050: e33e 01bc 0c52 08be 2c8c b03a 4213 2dbe
00000060: a1db ad3e ab9b 12be c7af aa3d ba61 103b
00000070: b161 c7bd 2a76 21be 0f24 353e 88f3 1bbe
00000080: ea04 953d c78f 5bbe 1704 8cbd d440 f7b9
00000090: 00c9 3b3e 715d 0f3e 54cd 843e 0300 2a3e
000000a0: 2daf 993e aaea fa3d 840e a33d 5e96 5dbe
000000b0: bff1 dabd 4f02 45be 99af bf3d 19ca 2b3e
000000c0: 195b 82ba 98b9 53be 814c 0dbd a1d1 93bd
000000d0: 262d 21be b391 5ebe 440d 5dbe 5e0a 7839
000000e0: f2f4 563a 5563 0dbe 0f60 ff3d c647 373e
000000f0: bfa1 113e c416 8dbd ede6 ed3e 64e6 093e
