TD3/output/optimal_agent/weights_critic2.pth (torch, 71279 bytes, 7 tensors)

hidden_layers.0.linear.weight f4 [64, 4]
-0.0012118595 0.0049895663 -0.012752452 0.001633645 0.02553106 0.07576987 -0.033249393 0.03291707
-0.9571032 -2.2405508 -0.13986595 0.10508879 -0.0116436 -0.011183439 -0.005195286 -0.03676512
0.040576685 -0.0068713133 -0.006934133 0.057759676 2.9059741 4.9794173 1.6472838 0.20993327
-1.3621051 3.437729 0.68467087 -0.116762154 -0.0042280713 0.006441934 -0.0069399253 0.018335115
0.702495 -2.418083 1.4770474 0.21806921 -2.4375775 3.075191 0.6013605 0.120391674
2.6096218 2.1561706 0.9046775 0.2549031 0.013556008 -0.011176773 -0.007709918 0.007851485
-0.025928762 0.035997186 0.0023665472 -0.030542603 0.012288097 -0.06131373 0.0014705979 -0.023310855
0.05268384 -0.041568752 -0.0031927463 0.06252003 -1.7900287 3.8649063 0.14249162 0.004153386
-3.4138367 1.3791502 0.70466363 0.10521211 0.050162576 0.010958768 -0.04063848 0.042467598
0.033073638 -0.026549723 0.013774879 0.01339346 1.0616049 -2.2664053 -0.4542731 -0.07423811
-4.7869287 -2.9240391 -0.5178819 -0.010772655 -3.2935157 -1.7730201 -0.8042896 -0.103408046
5.310518 -1.7846236 -1.416017 -0.1725549 -0.0011800297 0.006453569 0.047674187 0.03516906
-1.7918427 -3.292817 -0.30897987 -0.0817659 0.022106612 -0.025906162 -0.017923143 0.0005411451
0.013710124 0.0009614193 0.013379297 0.035333462 -1.0991822 -3.9363854 -0.6777364 -0.08505405
1.138369 4.758916 -1.0666744 -0.13487116 0.04296672 -0.038868375 -0.021484189 0.009196564
0.026803417 -0.008454254 -0.017912744 0.013715756 0.007937523 0.03909719 -0.013799629 -0.02706324
-0.005101649 -0.0025304519 -0.048198264 0.023003425 0.009460972 -0.023676204 -0.021976566 -0.010230214
-0.9318008 0.4035589 0.2956925 -0.4714229 -4.9492435 1.9482418 0.4073288 0.20292528
0.031861566 0.022468198 -0.025139589 0.060129125 0.079332955 -0.10043612 0.0015355033 0.07625646
0.018801607 0.026517238 0.0230882 0.010921572 0.035959516 -0.0026755175 -0.016181631 0.0442568
0.012387128 -0.013175885 0.010198923 0.018014472 0.00040761393 -0.0019485197 0.027598556 -0.017226005
-2.8837137 -2.3677819 -0.14189526 -0.132314 3.0050602 -4.32625 -0.9778214 -0.20084752
2.300048 -5.4238524 -0.7484121 -0.07984811 0.013669076 0.0067625092 -0.018485202 0.0019080851
0.0025464587 0.027627295 0.012311424 0.023066828 0.02508792 0.04317935 -0.028274894 0.033462495
0.005522226 -0.035354827 -0.006288839 -0.013742806 0.0151191065 -0.008647017 -0.0068093026 -0.021472575
4.6399174 3.9700084 1.0466698 0.14768657 0.024313273 1.8332797e-05 -0.026806735 0.031695075
-0.34813434 4.770841 0.80243134 0.1572594 -0.057830915 -2.4035647 -0.16270204 -0.10134213
-0.018052256 0.01945046 0.02673668 -0.049110748 0.03591303 0.058311276 -0.039044734 0.050884478
2.2077632 -1.1689728 -1.203293 -0.22456734 -0.004766474 0.04308309 0.0189803 -0.0012001198
-0.7518696 -3.6650836 -0.67171514 -0.115899645 -0.918801 4.233819 0.73282444 0.19269717
0.016542744 -0.069693014 0.011032031 -0.022143535 5.427477e-05 -0.028569793 -0.009598961 -0.0052315793
0.020286068 0.03212179 -0.032665532 0.05293505 0.03730497 -0.03858465 0.009515748 0.03148879
00000000: 42d7 9eba 847f a33b a9ef 50bc 0820 d63a
00000010: 8326 d13c 3c2d 9b3d 8430 08bd 0dd4 063d
00000020: b704 75bf 2f65 0fc0 0539 0fbe cb38 d73d
00000030: ccc4 3ebc be3a 37bc 383d aabb 0697 16bd
00000040: bd33 263d c128 e1bb b937 e3bb 6995 6c3d
00000050: 7bfb 3940 6357 9f40 32da d23f bff8 563e
00000060: 7659 aebf c003 5c40 9746 2f3f ff20 efbd
00000070: a28b 8abb dc16 d33b 5068 e3bb 8633 963c
00000080: b6d6 333f dfc1 1ac0 e40f bd3f 894d 5f3e
00000090: 4501 1cc0 eecf 4440 c3f2 193f e98f f63d
000000a0: 0b04 2740 b3fe 0940 f298 673f a982 823e
000000b0: 051a 5e3c c91e 37bc 7ba3 fcbb 84a3 003c
000000c0: 8e68 d4bc c971 133d 1318 1b3b 7b34 fabc
000000d0: 0454 493c 1b24 7bbd 14c1 c03a 68f6 bebc
000000e0: 03cb 573d ff43 2abd 653d 51bb 800a 803d
000000f0: a91f e5bf a05a 7740 53e9 113e 2119 883b
00000100: 4d7c 5ac0 fe87 b03f d664 343f 7279 d73d
00000110: 4677 4d3d 688c 333c 8974 26bd 81f2 2d3d
00000120: 3978 073d ce7e d9bc 08b0 613c 3e70 5b3c
00000130: abe2 873f c90c 11c0 7c96 e8be 260a 98bd
00000140: 852e 99c0 7523 3bc0 e893 04bf ca7f 30bc
00000150: f6c8 52c0 53f2 e2bf ece5 4dbf 99c7 d3bd
00000160: c3ef a940 8c6e e4bf 0c40 b5bf 3bb2 30be
00000170: 3aab 9aba 7678 d33b 0246 433d 6f0d 103d
00000180: 1a5b e5bf 84bd 52c0 9c32 9ebe e174 a7bd
00000190: ed18 b53c 2939 d4bc 8ed3 92bc a2db 0d3a
000001a0: 6ea0 603c c207 7c3a d734 5b3c d2b9 103d
000001b0: 01b2 8cbf bded 7bc0 2280 2dbf d130 aebd
000001c0: 13b6 913f 0a49 9840 c988 88bf aa1b 0abe
000001d0: dffd 2f3d 7234 1fbd 9cff afbc 2fad 163c
000001e0: d792 db3c b683 0abc bfbd 92bc 0db8 603c
000001f0: 620c 023c 6024 203d d717 62bc bab3 ddbc
00000200: bc2b a7bb f0d5 25bb 8b6b 45bd ae71 bc3c
00000210: 3102 1b3c 99f4 c1bc 3308 b4bc a19c 27bc
00000220: 7f8a 6ebf 469f ce3e 0265 973e 585e f1be
00000230: 3460 9ec0 fd5f f93f 678d d03e a5cb 4f3e
00000240: 4681 023d 3a0f b83c 8af1 cdbc f549 763d
00000250: 5179 a23d 74b1 cdbd f142 c93a 592c 9c3d
00000260: d405 9a3c ae3a d93c 7723 bd3c 65f0 323c
00000270: 494a 133d bc57 2fbb 578f 84bc 9e46 353d
00000280: 61f3 4a3c abdf 57bc 6219 273c 1693 933c
00000290: 04b5 d539 7965 ffba 5e16 e23c 8d1d 8dbc
000002a0: c48e 38c0 bd89 17c0 fe4c 11be 527d 07be
000002b0: e852 4040 a470 8ac0 8152 7abf f9aa 4dbe
000002c0: fd33 1340 3390 adc0 ef97 3fbf 6887 a3bd
000002d0: 43f4 5f3c 0a98 dd3b 476e 97bc b618 fa3a
000002e0: 7de2 263b a352 e23c dbb5 493c a5f6 bc3c
000002f0: 2e85 cd3c d5dc 303d c0a0 e7bc f80f 093d
00000300: caf3 b43b 39d0 10bd 9b12 cebb 8229 61bc
00000310: 21b6 773c 38ac 0dbc 9220 dfbb 41e7 afbc
00000320: 347a 9440 9e14 7e40 47f9 853f 263b 173e
00000330: a12c c73c 62c9 9937 cc99 dbbc b2d2 013d
00000340: aa3e b2be bbaa 9840 246c 4d3f 9c08 213e
00000350: 1ce0 6cbd 01d4 19c0 5d9b 26be 768c cfbd
00000360: 53e2 93bc 9256 9f3c e206 db3c 5a28 49bd
00000370: 8b19 133d ced7 6e3d 5fed 1fbd 3e6c 503d
00000380: fe4b 0d40 e7a0 95bf 8105 9abf fbf4 65be
00000390: 1530 9cbb e577 303d 937c 9b3c 574d 9dba
000003a0: 877a 40bf bb90 6ac0 86f5 2bbf cb5c edbd
000003b0: 8b36 6bbf 727b 8740 629a 3b3f 6852 453e
000003c0: a684 873c 36bb 8ebd b1bf 343c 5c66 b5bc
000003d0: 17a5 6338 330b eabc f644 1dbc ab6d abbb
000003e0: f82e a63c 2392 033d 4bcc 05bd 6cd2 583d
000003f0: 19cd 183d f00a 1ebd f1e7 1b3c 64fa 003d

hidden_layers.0.linear.bias f4 [64]
-0.055478256 -0.015165832 -1.4675971 0.009045458 0.009496094 -2.129 -0.21437956 -0.051868435
-0.981135 -0.5600777 -2.8010988 0.010584483 0.0028002854 -0.0003223477 0.004591627 -1.7700177
1.0755438 -0.003158551 0.013198126 -1.112716 -3.32212 1.9020839 -4.225073 0.01612239
-2.0343864 -0.0056850463 -0.024929065 -0.12883343 -0.58295166 0.013789317 -0.023783982 0.006549087
0.0048528225 0.01830929 -2.771807 -2.3717303 -0.01603029 -0.010648147 -0.049471162 -0.029990382
0.009141075 0.026434332 -2.0984015 -2.4408603 0.42269138 -0.013476701 -0.024030562 -0.027853929
0.03355682 -0.008976159 -1.2840694 0.013541349 -0.41398126 -2.2432756 -0.01291866 -0.008066029
-5.0473113 -0.040146377 -0.33005366 -0.16615382 0.0057103005 0.026498573 -0.02398198 -0.001482347
00000000: 2b3d 63bd 1c7a 78bc 39da bbbf 6733 143c
00000010: 8195 1b3c 8941 08c0 5186 5bbe ff73 54bd
00000020: aa2b 7bbf 4161 0fbf 3445 33c0 8a6a 2d3c
00000030: fe84 373b c700 a9b9 5c75 963b f18f e2bf
00000040: 6bab 893f b1ff 4ebb f43c 583c 7a6d 8ebf
00000050: 9d9d 54c0 7c77 f33f cc33 87c0 1a13 843c
00000060: 6333 02c0 a049 babb 0a38 ccbc e9ec 03be
00000070: 523c 15bf 96ec 613c a0d6 c2bc b999 d63b
00000080: 6d04 9f3b 5dfd 953c 4965 31c0 6eca 17c0
00000090: f451 83bc 9175 2ebc 46a2 4abd 64ae f5bc
000000a0: 73c4 153c d08c d83c 364c 06c0 0e37 1cc0
000000b0: 016b d83e 62cd 5cbc bedb c4bc ec2d e4bc
000000c0: e072 093d bd10 13bc 635c a4bf 89dc 5d3c
000000d0: 5af5 d3be d491 0fc0 caa8 53bc 6127 04bc
000000e0: 9383 a1c0 8770 24bd cbfc a8be 3a24 2abe
000000f0: 791d bb3b 8913 d93c db75 c4bc 504b c2ba

hidden_layers.1.linear.weight f4 [128, 64]
-0.4170851 -0.49737608 0.33912265 -0.2876959 -0.23263097 -0.92260313 -0.03820993 -0.43535733
-0.4091135 0.06595914 0.1674564 0.16587842 0.2782566 0.22661728 0.09236475 0.4880937
-0.42036083 0.30000287 0.046171363 -0.04080096 0.16778238 -0.99276674 -0.27212042 0.161427
0.37000984 -0.69448894 0.16726519 -0.5875367 -0.15694524 -0.36876437 0.96037424 0.3055942
0.49066463 0.4916773 0.7972393 -0.064118676 -0.88201267 0.1059536 -0.6979747 0.27397087
0.09828176 0.02714052 0.019066792 -0.6363164 -0.3491236 0.67786044 -0.30807698 0.11026549
0.15294391 0.1417293 -0.4307663 0.7798152 0.2003591 0.38877785 0.2603381 0.6132912
0.46485722 0.30698243 -0.44577217 0.033551656 -0.113482945 0.35545844 -0.2037358 -0.30198267
-0.30532408 0.20295806 0.1880277 -0.64051163 0.4722976 -1.4922906 0.26686788 -0.9753233
-0.34320205 0.2460304 -0.27696624 -0.19599973 0.88585544 0.0728872 0.4417611 0.89428806
-0.38934392 -0.16416895 0.07866354 -0.081878394 -0.22011958 -1.3872521 -0.77834696 -0.0152716795
0.28991005 -0.5869551 -0.18202022 -0.44071797 -0.05249331 0.022645716 0.3382085 0.44139805
0.003880719 0.94893986 1.0640447 0.121925965 0.41766316 -0.37199432 0.2741295 0.17844076
-0.23583819 0.2172035 -0.230194 -1.0951809 -0.61992985 0.37513345 0.66888976 -0.52356845
0.45367375 0.090018205 -0.6262976 0.550448 0.46210852 0.34151307 -0.508333 1.2041997
0.41739455 -0.20211658 -0.56476456 0.24803455 0.3315436 0.4807128 0.28993952 1.7550136
-0.3834478 0.7218342 0.48964283 -0.91333145 0.028665433 -0.84067166 -0.038508445 0.022231452
-0.07573141 -0.120630674 0.60094297 -1.6269337 -0.04623626 0.8803996 0.24208556 0.66247463
-0.7228967 0.4861781 -0.28038338 0.28613675 0.29109275 -1.1074065 -0.8165776 0.23865761
0.5402823 -0.09096517 -0.086751185 0.051241428 -0.21569166 0.48916924 0.66891754 0.22806638
-0.14329197 0.60412157 0.7375807 0.21134035 0.10810758 -0.2341532 0.20590228 0.96634686
-0.42876425 0.008810277 0.1555305 -0.21063611 -0.5386337 0.23710108 0.73236835 0.54018414
0.70607126 0.70331186 -0.26810172 0.0117818 0.36429608 0.47051403 -0.41016173 -0.06943873
0.65188193 0.007665702 0.04905976 0.27777594 -0.013089615 0.6988478 -0.14913376 0.45114136
-0.027345896 0.74525523 0.69691014 -1.2092144 0.7026851 -0.9937897 0.074662656 -0.14153652
-0.24853782 -0.05151097 0.14104496 -1.0440079 0.47533765 -0.083164595 0.095775925 0.3171599
-0.24279514 0.010861131 1.5751755 -0.16007923 -0.36968488 -0.83998716 -0.9843168 0.50693566
0.32046565 0.37139362 0.36947972 -0.48865452 -0.3059968 0.51095873 -0.61680084 -0.57505125
-0.3396779 -0.58222336 1.0445175 0.13106178 0.023791479 0.6146119 0.36130035 1.073598
-1.4230222 0.13813117 -0.20305192 -0.46429607 -0.33980024 -0.29376352 0.48466647 -0.8216957
-1.2543215 1.1464206 -0.89553535 -0.86018324 -0.111277975 0.91868454 0.61466783 -0.4294239
-0.016762964 -0.68773776 -0.28161615 -0.108863324 0.06421137 -1.2392602 -0.6898227 0.17195278
00000000: 2e8c d5be 14a8 febe 7ca1 ad3e e14c 93be
00000010: d036 6ebe b82f 6cbf 0482 1cbd 28e7 debe
00000020: 5377 d1be 9615 873d b179 2b3e 08dc 293e
00000030: a677 8e3e 5c0e 683e bb29 bd3d 6be7 f93e
00000040: 8939 d7be fa99 993e 2f1e 3d3d e81e 27bd
00000050: 25cf 2b3e f625 7ebf 5e53 8bbe 1f4d 253e
00000060: ee71 bd3e 07ca 31bf 9147 2b3e ce68 16bf
00000070: 41b6 20be afce bcbe 16db 753f d876 9c3e
00000080: 6538 fb3e 21bd fb3e e017 4c3f a750 83bd
00000090: 95cb 61bf 33fe d83d 78ae 32bf e945 8c3e
000000a0: f347 c93d cc55 de3c f631 9c3c a2e5 22bf
000000b0: 54c0 b2be 4388 2d3f 44bc 9dbe e0d2 e13d
000000c0: 549d 1c3e 7c21 113e 678d dcbe f8a1 473f
000000d0: f02a 4d3e e40d c73e 094b 853e a700 1d3f
000000e0: c401 ee3e cd2c 9d3e 403c e4be 766d 093d
000000f0: bf69 e8bd a6fe b53e 1ea0 50be 799d 9abe
00000100: 7053 9cbe 3dd4 4f3e 558a 403e 92f8 23bf
00000110: fed0 f13e 6103 bfbf e8a2 883e caae 79bf
00000120: 2eb8 afbe 65ef 7b3e 85ce 8dbe 27b4 48be
00000130: 6cc7 623f e245 953d 832e e23e 10f0 643f
00000140: 1658 c7be e81b 28be 5a1a a13d dcaf a7bd
00000150: 0767 61be 7a91 b1bf bf41 47bf 1136 7abc
00000160: 176f 943e b042 16bf 8263 3abe c9a5 e1be
00000170: 3a03 57bd 8283 b93c aa29 ad3e edfe e13e
00000180: a953 7e3b b9ed 723f 9e32 883f 52b4 f93d
00000190: f2d7 d53e 0a76 bebe b45a 8c3e 2db9 363e
000001a0: 917f 71be 986a 5e3e fab7 6bbe e32e 8cbf
000001b0: b9b3 1ebf 7e11 c03e 5c3c 2b3f 9508 06bf
000001c0: ed47 e83e 775b b83d 0a55 20bf 29ea 0c3f
000001d0: 7d99 ec3e cdda ae3e 1d22 02bf 3723 9a3f
000001e0: bdb4 d53e a6f7 4ebe 6994 10bf c5fc 7d3e
000001f0: 15c0 a93e fd1f f63e f472 943e 49a4 e03f
00000200: 4553 c4be 20ca 383f 77b2 fa3e 17d0 69bf
00000210: c5d3 ea3c 4236 57bf 08bb 1dbd bc1e b63c
00000220: 1219 9bbd 370d f7bd 66d7 193f 5d3f d0bf
00000230: 3c62 3dbd de61 613f 47e5 773e f097 293f
00000240: c20f 39bf 56ec f83e 698e 8fbe 8480 923e
00000250: 1c0a 953e 7fbf 8dbf 3b0b 51bf a962 743e
00000260: f14f 0a3f f24b babd 9baa b1bd 88e2 513d
00000270: 46de 5cbe 6474 fa3e 2e3e 2b3f 3c8a 693e
00000280: 21bb 12be b6a7 1a3f 17d2 3c3f 9b69 583e
00000290: 8267 dd3d dbc5 6fbe 0cd8 523e 8262 773f
000002a0: fd86 dbbe fb58 103c 6343 1f3e feb0 57be
000002b0: e6e3 09bf a0ca 723e 7e7c 3b3f 8249 0a3f
000002c0: 16c1 343f 3f0c 343f a144 89be 7308 413c
000002d0: 0485 ba3e 37e7 f03e b800 d2be e535 8ebd
000002e0: bce1 263f 9230 fb3b e3f2 483d a638 8e3e
000002f0: d375 56bc b0e7 323f 85b6 18be 00fc e63e
00000300: 8004 e0bc 0cc9 3e3f b468 323f 8ac7 9abf
00000310: 2ce3 333f 0069 7ebf bce8 983d f3ee 10be
00000320: b380 7ebe 2bfd 52bd 176e 103e 0da2 85bf
00000330: 755f f33e 3352 aabd 2b26 c43d c862 a23e
00000340: 4a9f 78be e3f2 313c 5a9f c93f cfeb 23be
00000350: 5647 bdbe 6609 57bf 30fc 7bbf 89c6 013f
00000360: 1314 a43e 4e27 be3e 722c bd3e ed30 fabe
00000370: 9dab 9cbe 31ce 023f a9e6 1dbf 8f36 13bf
00000380: 43ea adbe 970c 15bf c0b2 853f 0f35 063e
00000390: 59e6 c23c 3557 1d3f 5cfc b83e a96b 893f
000003a0: 9725 b6bf 4272 0d3e d8ec 4fbe 37b8 edbe
000003b0: 4cfa adbe 2c68 96be 3426 f83e a65a 52bf
000003c0: 9b8d a0bf e9bd 923f ce41 65bf f834 5cbf
000003d0: b5e5 e3bd e92e 6b3f df5a 1d3f 73dd dbbe
000003e0: 7c52 89bc 950f 30bf fe2f 90be bcf3 debd
000003f0: 4081 833d 14a0 9ebf 3898 30bf 6414 303e

hidden_layers.1.linear.bias f4 [128]
-1.3863826 -1.5729398 -1.3586068 -1.0305744 -1.16223 -0.5772286 -2.962316 -1.2588564
1.4745541 -1.1265101 -0.62115693 -2.0385416 -0.31367874 -2.5624228 -0.50446236 -1.7663612
1.3711852 -0.45238706 -0.4267416 -1.4426825 -0.85054773 -2.1900375 -0.50561756 -1.6548539
-1.9144485 -0.42058104 0.49849987 -3.0705483 -2.9121082 -0.06420076 -0.7606803 -0.84831613
-0.92295754 -1.6927814 -1.0804069 -1.0190392 -1.2122879 -2.8078809 0.81695044 -0.90750057
-2.9334025 -1.013467 -0.5670551 -0.9868656 -1.5534481 -0.7951426 -2.040635 -1.2232193
-2.8971193 -2.346534 -1.124587 -1.0903125 -1.1773235 -1.425845 -2.9064865 -2.186219
0.9514481 -0.85508084 -3.7512538 -2.0008504 -1.3638462 -1.1753874 -2.3912559 -0.43410116
-0.51258385 -1.3320386 -0.8892427 -1.5788099 -2.3676755 -0.9900565 -2.823187 -0.5309106
-0.5271655 -0.11772579 -1.4086115 -0.84058505 -1.4144565 -1.177121 -0.5395383 -2.878069
-0.3910007 -0.13899362 -1.3677138 -0.531879 -0.46977916 -0.85505307 -0.6859796 -0.71679467
-0.67880714 -2.8944314 -0.56713545 -0.6814226 -0.9391994 -1.2833561 -1.1607066 -1.7213374
-1.3808491 -1.0608689 -1.0624882 -0.5885249 -0.5968539 0.30254707 -2.0410485 -1.040136
-2.1765306 -2.0027475 -1.116018 -1.0946058 -3.1125193 -1.3812124 1.561731 0.17988507
-1.9681481 -2.5544426 -0.48276213 -1.485816 -1.1584017 -0.9434626 -1.243798 -0.10131327
-1.4318228 -1.0481474 -2.8259628 -1.330708 -0.15589239 -0.63833827 -2.7310808 -0.980514
00000000: fc74 b1bf 1756 c9bf d4e6 adbf dde9 83bf
00000010: f4c3 94bf 41c5 13bf 9696 3dc0 3522 a1bf
00000020: 30be bc3f 7c31 90bf 2404 1fbf 7777 02c0
00000030: 809a a0be bcfe 23c0 7224 01bf 2018 e2bf
00000040: ff82 af3f 479f e7be e07d dabe d2a9 b8bf
00000050: 7fbd 59bf 9329 0cc0 2770 01bf 41d2 d3bf
00000060: a60c f5bf 6656 d7be 603b ff3e dd83 44c0
00000070: fb5f 3ac0 b07b 83bd f2bb 42bf 3f2b 59bf
00000080: f246 6cbf 10ad d8bf c64a 8abf e06f 82bf
00000090: 402c 9bbf 52b4 33c0 aa23 513f f551 68bf
000000a0: debc 3bc0 49b9 81bf 862a 11bf 39a3 7cbf
000000b0: 63d7 c6bf 778e 4bbf c499 02c0 7392 9cbf
000000c0: 676a 39c0 9d2d 16c0 78f2 8fbf 5c8f 8bbf
000000d0: 89b2 96bf 1782 b6bf e003 3ac0 03eb 0bc0
000000e0: 1a92 733f 94e6 5abf 8b14 70c0 ef0d 00c0
000000f0: 8392 aebf 1873 96bf 560a 19c0 8242 debe
00000100: b238 03bf 3e80 aabf 69a5 63bf 7116 cabf
00000110: ff87 17c0 5874 7dbf 19af 34c0 c2e9 07bf
00000120: 51f4 06bf 381a f1bd 624d b4bf 9530 57bf
00000130: e90c b5bf e7ab 96bf 2f1f 0abf 4832 38c0
00000140: 3e31 c8be 5854 0ebe 3f11 afbf 3929 08bf
00000150: e586 f0be c2e4 5abf 5c9c 2fbf db7f 37bf
00000160: 4ec6 2dbf 5d3e 39c0 ca2f 11bf b671 2ebf
00000170: 5f6f 70bf 0345 a4bf 0992 94bf c954 dcbf
00000180: aabf b0bf 8dca 87bf 9dff 87bf 91a9 16bf
00000190: 6bcb 18bf 73e7 9a3e 8aa0 02c0 2d23 85bf
000001a0: 474c 0bc0 042d 00c0 aed9 8ebf 0b1c 8cbf
000001b0: 8433 47c0 91cb b0bf cde6 c73f cb33 383e
000001c0: 47ec fbbf fd7b 23c0 992c f7be 382f bebf
000001d0: 8246 94bf c486 71bf c634 9fbf 557d cfbd
000001e0: f845 b7bf b229 86bf 93dc 34c0 a454 aabf
000001f0: 41a2 1fbe 236a 23bf 07ca 2ec0 f702 7bbf

hidden_layers.2.linear.weight f4 [64, 128]
0.6524914 0.68373185 0.45297438 0.39780253 0.28902397 0.45353174 0.86833626 0.56583905
0.46087295 -0.0338843 0.4408844 0.6356745 -0.10757242 0.07148365 0.60315514 0.49781734
-0.2230188 0.38543236 0.1696923 0.397942 -0.02676167 0.6926708 -0.0437175 -0.0020364085
0.71468073 -0.19014205 0.59276813 1.0205019 1.0806459 -0.4636284 0.44147524 0.54039526
0.09153973 0.56226563 0.41206133 0.013744714 0.25707814 0.960713 0.28202304 0.08348992
0.9652018 0.6219025 0.23475412 0.3831242 0.25722533 0.6762377 0.22573999 -0.041525465
1.2205263 0.8556399 0.08854038 0.49142742 0.25694138 0.061828323 1.041169 0.6870634
0.027938094 0.17270014 1.0744424 0.9747685 0.3872052 0.36394614 1.0795212 -0.42647845
0.28054214 0.6228415 0.4662034 0.6371581 1.0051938 0.3762448 0.9208354 0.3236691
0.44585982 0.6219421 0.052451484 0.35869834 0.54970783 0.10933496 0.7371036 0.96207005
0.4551796 0.10401807 0.2313784 0.3400296 0.57021177 0.056072734 -0.041483976 0.47721452
-0.12405573 0.9293756 0.40867338 0.7361847 0.33904454 0.36702433 0.34063894 -0.20742449
0.37281528 0.56070375 0.5264817 -0.1363362 0.25548413 -0.14402822 -0.64513534 0.5904858
0.06647572 0.68099993 0.3552922 -0.01385255 0.9272971 0.36881498 -0.27047205 0.01155563
0.6736877 1.0872607 0.40688235 0.06668886 0.5502144 0.6231135 0.7696942 -0.6239643
0.63310957 0.66644466 0.96180445 0.43565044 0.6383498 0.48175678 0.8580261 0.25836116
0.2228715 0.28124598 -0.06862076 0.14550604 0.39227113 0.04715548 0.42144006 0.17731005
-0.18431653 -0.13023072 0.07336083 0.32818758 0.39402533 0.04575929 0.2579378 -0.0706472
-0.8260456 0.20309442 0.060584076 -0.045785412 0.61512613 0.48077878 0.41287592 -0.117718875
0.16341795 0.45522118 0.1581069 0.734971 0.6581735 -0.41483092 -0.16758774 0.12568635
-0.08589728 0.2684694 0.25315896 -0.3901202 0.34041834 0.71671116 0.11174791 0.4671616
0.6182695 0.48727426 -0.098059416 -0.34623092 -0.038881153 0.30446225 0.312015 0.18414682
0.56638604 0.46234024 0.43579397 0.29902464 0.17903739 0.29366574 0.6735781 0.33915985
-0.5095702 0.09757385 0.7532712 0.4896458 -0.16964976 -0.22827154 0.67674327 0.40441835
0.074433565 0.5221904 0.08490817 0.31773812 0.6610714 0.31164598 0.72245175 0.037722953
-0.011155376 0.4310403 0.20346425 -0.3052774 0.4704571 0.338515 0.46858612 0.67406803
0.16078274 0.23466383 0.23650494 0.26271585 0.10914403 0.25624627 0.08245414 -0.37254244
0.13304777 0.61776197 -0.34945887 0.2883055 -0.19653669 0.15550289 0.39025447 0.39564428
0.26642355 0.33113566 -0.10246544 -0.26362363 0.34781054 -0.21905503 -0.2412038 0.24748272
-0.05731798 0.291673 0.37453124 -0.07574639 0.53202116 0.29510793 -0.3966439 -0.048880905
0.2600177 0.5710804 0.64222294 0.38604182 0.3771665 0.22879238 -0.304447 -0.37510133
-0.22251968 0.14469184 0.5162086 -0.20984861 0.36744273 0.36074418 0.62923 -0.26250747
00000000: ad09 273f 0d09 2f3f 42ec e73e c6ac cb3e
00000010: f3fa 933e 5035 e83e 494b 5e3f d4da 103f
00000020: 8af7 eb3e 44ca 0abd 9abb e13e 90bb 223f
00000030: ee4e dcbd 0566 923d 6068 1a3f eae1 fe3e
00000040: 0a5f 64be 6457 c53e d1c3 2d3e 0ebf cb3e
00000050: 4a3b dbbc e052 313f 1f11 33bd 4475 05bb
00000060: 51f5 363f 99b4 42be a7bf 173f ce9f 823f
00000070: 9b52 8a3f b460 edbe 0b09 e23e 5857 0a3f
00000080: 2f79 bb3d a4f0 0f3f b4f9 d23e 8231 613c
00000090: bf9f 833e 4af1 753f 5365 903e c3fc aa3d
000000a0: 7717 773f 0135 1f3f 6263 703e db28 c43e
000000b0: 0ab3 833e ea1d 2d3f 6228 673e 9b16 2abd
000000c0: 353a 9c3f 370b 5b3f a954 b53d 609c fb3e
000000d0: d28d 833e b23f 7d3d 0745 853f 63e3 2f3f
000000e0: 6ede e43c 4ed8 303e 5487 893f 6e8a 793f
000000f0: c33f c63e 2657 ba3e c02d 8a3f 625b dabe
00000100: 38a3 8f3e 8a72 1f3f 36b2 ee3e cb1c 233f
00000110: 31aa 803f 29a3 c03e debb 6b3f f5b7 a53e
00000120: bd47 e43e 9937 1f3f 5ed7 563d 4fa7 b73e
00000130: a7b9 0c3f 02eb df3d d2b2 3c3f 394a 763f
00000140: 4d0d e93e 6d07 d53d 76ee 6c3e 5c18 ae3e
00000150: 66f9 113f 86ac 653d 1aeb 29bd 7655 f43e
00000160: ee10 febd 8feb 6d3f a33d d13e 9a76 3c3f
00000170: 3f97 ad3e 9dea bb3e 3a68 ae3e 1667 54be
00000180: a5e1 be3e 488a 0f3f 81c7 063f b89b 0bbe
00000190: d1ce 823e 227c 13be 9727 25bf 142a 173f
000001a0: 6c24 883d 0356 2e3f dce8 b53e cef5 62bc
000001b0: 5863 6d3f 51d5 bc3e 507b 8abe d353 3d3c
000001c0: cc76 2c3f 5c2b 8b3f e252 d03e 2b94 883d
000001d0: dada 0c3f 5e84 1f3f ae0a 453f 20bc 1fbf
000001e0: 7813 223f 1e9c 2a3f d138 763f 930d df3e
000001f0: e46a 233f d3a8 f63e 99a7 5b3f ea47 843e
00000200: 6d38 643e 79ff 8f3e 0b89 8cbd 89ff 143e
00000210: c3d7 c83e 1b26 413d fec6 d73e c490 353e
00000220: 79bd 3cbe 345b 05be 343e 963d 3408 a83e
00000230: b0bd c93e 186e 3b3d 6c10 843e 7baf 90bd
00000240: b977 53bf fcf7 4f3e 0227 783d 7c89 3bbd
00000250: e878 1d3f a328 f63e 7964 d33e 9816 f1bd
00000260: 0957 273e c012 e93e c6e6 213e 0f27 3c3f
00000270: 0f7e 283f b864 d4be 1f9c 2bbe ecb3 003e
00000280: eaea afbd d274 893e 0d9e 813e d6bd c7be
00000290: 504b ae3e 627a 373f 17dc e43d ce2f ef3e
000002a0: e946 1e3f 037c f93e 60d3 c8bd 2e45 b1be
000002b0: d841 1fbd 7ae2 9b3e 6ec0 9f3e fc90 3c3e
000002c0: adfe 103f dcb7 ec3e 6320 df3e c219 993e
000002d0: 9455 373e 5b5b 963e 9d6f 2c3f 5ca6 ad3e
000002e0: 3173 02bf ccd4 c73d 62d6 403f dbb2 fa3e
000002f0: abb8 2dbe 04c0 69be 0c3f 2d3f ec0f cf3e
00000300: a070 983d 45ae 053f 56e4 ad3d 92ae a23e
00000310: fa3b 293f 1090 9f3e 99f2 383f 6283 1a3d
00000320: 0ac5 36bc 50b1 dc3e ef58 503e 524d 9cbe
00000330: c1df f03e d751 ad3e 85ea ef3e b98f 2c3f
00000340: 3ba4 243e b74b 703e 5a2e 723e b182 863e
00000350: e886 df3d b632 833e b7dd a83d e2bd bebe
00000360: ad3d 083e a625 1e3f 46ec b2be c79c 933e
00000370: ea40 49be 263c 1f3e 6fcf c73e e391 ca3e
00000380: ab68 883e 9d8a a93e 67d9 d1bd adf9 86be
00000390: 3914 b23e f64f 60be 21fe 76be 1c6c 7d3e
000003a0: 42c6 6abd 2a56 953e 8fc2 bf3e ec20 9bbd
000003b0: 8a32 083f 6318 973e e914 cbbe 5837 48bd
000003c0: 0a21 853e 5332 123f b968 243f 46a7 c53e
000003d0: f81b c13e 8d48 6a3e 7ae0 9bbe 480d c0be
000003e0: 33dc 63be 192a 143e 3f26 043f 8ee2 56be
000003f0: 7421 bc3e 76b3 b83e 3815 213f 6167 86be

hidden_layers.2.linear.bias f4 [64]
-0.9039802 -0.48074082 -0.7226964 -0.3079651 1.29841 -1.1116793 0.035915952 -0.01767626
-1.1529883 -0.42277852 -1.2110958 -0.71827346 -0.7161699 -1.0516044 -0.7098274 1.2085142
-0.105962336 -0.0484084 -0.40658346 -0.8618046 -0.9684278 -0.40974402 -0.4465801 -0.53954625
1.8829664 0.8777339 0.050369754 -0.35182312 -0.21668065 -0.5940015 -0.89802873 -1.0303406
-0.9967123 -0.4119104 -0.85798585 -0.47826776 -0.8807187 -0.18972032 -1.0650403 -0.6040646
-0.4314839 -0.58799684 -0.5835618 -0.58203626 -1.401376 -0.5536858 -0.5090822 -0.67799133
-0.5474999 -1.1421747 -0.42050233 -0.27955848 -0.84456545 -0.44655102 -0.092478 -0.058758114
-0.41013315 -1.175855 -1.1425382 -0.9061402 -0.6111625 -0.8438679 -0.62865585 -0.6512386
00000000: 3f6b 67bf a923 f6be a202 39bf 9aad 9dbe
00000010: 4d32 a63f 824b 8ebf 9b1c 133d cecd 90bc
00000020: 1f95 93bf 6d76 d8be 3005 9bbf c5e0 37bf
00000030: e956 37bf f99a 86bf 40b7 35bf 98b0 9a3f
00000040: c802 d9bd e347 46bd b52b d0be 3a9f 5cbf
00000050: e2ea 77bf f8c9 d1be 26a6 e4be b41f 0abf
00000060: 0b05 f13f 2bb3 603f 8450 4e3d 2922 b4be
00000070: 88e1 5dbe 7b10 18bf 36e5 65bf 33e2 83bf
00000080: 8a28 7fbf ece5 d2be f6a4 5bbf 83df f4be
00000090: c876 61bf 0b46 42be 3e53 88bf faa3 1abf
000000a0: 75eb dcbe f686 16bf 4e64 15bf 5400 15bf
000000b0: 4a60 b3bf 5abe 0dbf 3653 02bf d790 2dbf
000000c0: f428 0cbf c832 92bf 154c d7be 4a22 8fbe
000000d0: 7135 58bf 56a2 e4be 1b65 bdbd 59ac 70bd
000000e0: f9fc d1be 6b82 96bf b13e 92bf cef8 67bf
000000f0: 2575 1cbf ba07 58bf 97ef 20bf 93b7 26bf

output_layer.linear.weight f4 [1, 64]
1.8051406 1.7258836 2.0959435 1.095409 -0.21959049 1.8274928 0.8900515 0.8049735
2.1970258 1.4750768 2.1576025 1.7962545 1.3977194 1.9585687 1.979297 -0.15657791
1.0428345 1.3001119 1.3891582 1.9790877 2.1818614 1.7451504 1.6724172 1.9030063
-0.5485108 -0.1768394 1.1016082 1.3838186 1.3814484 1.1146286 1.7849466 2.0994258
1.1757666 1.2576846 1.983674 1.6486125 2.0834162 1.5846317 1.3694824 1.9026525
0.4971866 2.082813 1.9773573 2.0087357 1.9412992 1.2649509 1.4169436 1.9740033
1.1208696 1.9664646 1.5879834 1.6084598 2.219901 1.5742565 1.071557 1.0687256
1.2666984 2.1809464 2.015178 2.0300343 1.9142202 1.7634385 1.9295927 2.0467117
00000000: d90e e73f c1e9 dc3f f023 0640 5d36 8c3f
00000010: 54dc 60be 49eb e93f 6ada 633f be12 4e3f
00000020: 129c 0c40 51cf bc3f 2916 0a40 abeb e53f
00000030: 78e8 b23f 61b2 fa3f 9b59 fd3f f655 20be
00000040: 9a7b 853f 116a a63f f0cf b13f bf52 fd3f
00000050: 9ea3 0b40 1761 df3f c411 d63f b695 f33f
00000060: 346b 0cbf 6315 35be 7f01 8d3f f820 b13f
00000070: 4dd3 b03f 26ac 8e3f 2179 e43f fe5c 0640
00000080: 857f 963f cffb a03f 08e9 fd3f bc05 d33f
00000090: b156 0540 36d5 ca3f 334b af3f 1e8a f33f
000000a0: 3e8f fe3e cf4c 0540 0b1a fd3f 208f 0040
000000b0: 7e7c f83f e9e9 a13f 685e b53f 24ac fc3f
000000c0: a878 8f3f 1db5 fb3f 0a43 cb3f 03e2 cd3f
000000d0: dc12 0e40 3d81 c93f c828 893f 00cc 883f
000000e0: 2c23 a23f a094 0b40 adf8 0040 15ec 0140
000000f0: 2b05 f53f 5ab8 e13f e5fc f63f 53fd 0240
